WEB_APP/media/models/BiTCN_best_USTC_8.pt (torch, 513528 bytes, 8 tensors)

weight f4 [64, 3, 3]
0	0xbe5d3854	-0.21603519
1	0x3f14f3c8	0.5818448
2	0xbf234f98	-0.63793325
3	0xbee046d7	-0.43804047
4	0xbfebd640	-1.8424759
5	0x3fa65082	1.2993319
6	0x3e3e7bd6	0.18601927
7	0xbe1db0fb	-0.15399544
8	0x3e857ca9	0.2607167
9	0xbf7a9bfb	-0.9789426
10	0xbd827b07	-0.06371122
11	0x3f3069dc	0.6891153
12	0xbd2feb79	-0.042949174
13	0xbe294fea	-0.16534391
14	0x3e6f9495	0.23396523
15	0xbf9e0219	-1.234439
16	0xbd763b13	-0.06011493
17	0x3f71811b	0.94337624
18	0xbe81d9a3	-0.25361356
19	0xbdd6a212	-0.10480131
20	0x3e6bbb5c	0.2302069
21	0x3f2b1713	0.66832083
22	0xbe2b9400	-0.16755676
23	0xbee73bfd	-0.45162955
24	0x3c302d4d	0.010752988
25	0xbf4906e4	-0.7852614
26	0xbf86f122	-1.0542338
27	0x3dd872f6	0.10568802
28	0x3eb7009d	0.35742655
29	0x3f2fc329	0.68657166
30	0x3f1c4101	0.6103669
31	0xbe8ace24	-0.27110398
32	0x3e9246f9	0.28569773
33	0xbf5abfc2	-0.8544885
34	0xbf2dc034	-0.67871404
35	0x3f2cac47	0.67450374
36	0xbf9be8ee	-1.218046
37	0xbd6b9fc1	-0.0575254
38	0x3efee270	0.49782133
39	0xbf51eea1	-0.82004744
40	0xbd953f3c	-0.072874516
41	0x3fb63aa9	1.4236652
42	0x3ef4f059	0.4783962
43	0x3f1b4bd1	0.6066256
44	0xbef26eac	-0.4735006
45	0xbeff38d6	-0.4984805
46	0xbf1847ad	-0.5948437
47	0xbe4785ac	-0.19484586
48	0x3d6d3d00	0.057919502
49	0x3ef5a7e0	0.4797964
50	0x3f038c76	0.513862
51	0xbe85b46d	-0.26114216
52	0xbef54363	-0.47902974
53	0xbea0f454	-0.31436408
54	0x3eb57db4	0.35447466
55	0xbf85ff55	-1.0468546
56	0xbf0e0c38	-0.55487394
57	0x3eabb0ad	0.3353323
58	0x3f76c4ea	0.96394217
59	0x3e799346	0.24372587
60	0x3e954d76	0.2916066
61	0x3ec824b1	0.39090493
62	0xbed6a6d4	-0.41924155
63	0x3f869fcd	1.0517517
64	0xbf71ba27	-0.9442467
65	0xbe8886cb	-0.2666534
66	0x3e647f48	0.22314179
67	0x3f58dae2	0.8470899
68	0xbf1e4b21	-0.6183339
69	0xbfb79142	-1.4341204
70	0x3f466884	0.7750323
71	0x3eb527d7	0.35381958
72	0xbdafb1b6	-0.085788175
73	0x3ef7be47	0.48387358
74	0x3ef2b646	0.4740469
75	0x3ebf4879	0.3735998
76	0x3ed45dfb	0.4147795
77	0xbfd0d0f7	-1.6313771
78	0xbea5f055	-0.3240992
79	0xbe9d9355	-0.30776468
80	0x3eb1f0ec	0.3475412
81	0xbf4373e2	-0.763487
82	0x3f07ee0a	0.53097594
83	0x3f46111d	0.7736986
84	0x3f2abcd3	0.6669437
85	0xbe898e3f	-0.26866338
86	0x3e9d17aa	0.30682117
87	0xbf1e46c1	-0.6182671
88	0x3da32ee5	0.07967929
89	0x3e8f02f7	0.2793195
90	0x3f883f2b	1.0644277
91	0x3eaf86c5	0.34282508
92	0xbf3efebe	-0.74607456
93	0x3f58f703	0.8475191
94	0xbee6c339	-0.45070818
95	0x3ec6f6fd	0.38860312
96	0xbd9a77c5	-0.075423755
97	0xbf81ce44	-1.0141072
98	0xbfb5f32e	-1.4214838
99	0x3f89ca08	1.076478
100	0x3f8683fc	1.0509028
101	0xbf99105a	-1.1958115
102	0xbf48f86f	-0.7850408
103	0xbf4d86fb	-0.8028409
104	0x3e2a0230	0.16602397
105	0xbe9393b5	-0.2882363
106	0x3dc41b87	0.09575563
107	0x3ebbc52c	0.36673868
108	0x3d2ac3e4	0.041690722
109	0x3f46c93a	0.776508
110	0xbdd259fd	-0.1027107
111	0xbeac0bb8	-0.3360269
112	0xbf282774	-0.656852
113	0xbf13be0c	-0.57711864
114	0xbf405654	-0.75131726
115	0xbf3311fc	-0.69949317
116	0xbe2b5a57	-0.1673368
117	0x3f6925e4	0.9107344
118	0xbe43bb20	-0.19114351
119	0xbf527595	-0.82210666
120	0x3f08758d	0.5330437
121	0x3f295dd7	0.66158813
122	0x3f55135a	0.83232653
123	0xbde3e310	-0.11127293
124	0xbede6213	-0.434342
125	0xbf4c22a0	-0.79740334
126	0xbe9c8546	-0.3057043
127	0xbf68ef08	-0.9098973
128	0xbf977b5f	-1.1834525
129	0x3e849124	0.25891984
130	0x3ec38e01	0.38194278
131	0x3f491fbc	0.7856405
132	0x3e01d080	0.12677193
133	0xbe2df490	-0.16987824
134	0x3ed2d4b0	0.41177893
135	0x3d7afad2	0.061274357
136	0xbf15b439	-0.5847812
137	0x3f811b9a	1.0086548
138	0xbfa8342d	-1.3140923
139	0x3ef16038	0.47143722
140	0x3e2af7f3	0.16696148
141	0x3f0648d2	0.52454865
142	0x3f19670c	0.5992286
143	0xbdfece6a	-0.12441714
144	0x3ed71f6d	0.42016163
145	0x3f845fa3	1.0341686
146	0x3f61dd74	0.88228536
147	0xbe5a094f	-0.21292613
148	0x3f26f899	0.6522308
149	0x3df69879	0.120408006
150	0xbf482bd4	-0.78191876
151	0xbfa18466	-1.261853
152	0xbf62a4c6	-0.88532674
153	0xbd057069	-0.032577906
154	0x3e856b17	0.26058266
155	0xbf004bd3	-0.501157
156	0xbfb0fb8f	-1.382677
157	0xbf9c217d	-1.219772
158	0x3f627db2	0.88473046
159	0x3eabf323	0.33583936
160	0x3e9ca1b3	0.30592117
161	0xbe9eef7a	-0.3104208
162	0x3f680cab	0.9064433
163	0xbe886ee0	-0.2664709
164	0x3ef498d8	0.4777286
165	0xbedc0c16	-0.4297797
166	0xbf172a38	-0.59048796
167	0xbe7e7665	-0.24849851
168	0xbf4141f7	-0.7549128
169	0xbee32edb	-0.44371685
170	0x3c5b2b89	0.013377079
171	0x3eccec78	0.4002416
172	0x3f5a2260	0.852087
173	0x3eee785d	0.46576205
174	0xbeffd5a8	-0.49967694
175	0x3f7d1ac3	0.9886896
176	0x3e0b319a	0.1359314
177	0xbf25cecf	-0.6476869
178	0x3f6ebe2a	0.9325892
179	0x3f3d4d1f	0.739458
180	0xbf0bb5f1	-0.54574496
181	0x3f09b983	0.53798693
182	0x3e94a946	0.29035395
183	0x3f9c10d2	1.2192633
184	0xbf5df8bd	-0.8670767
185	0xbf71237d	-0.94194776
186	0x3f3c4478	0.73541975
187	0xbf06ae08	-0.526093
188	0xbec74b2b	-0.38924536
189	0x3ea2fc70	0.3183322
190	0x3eb43853	0.35199222
191	0xbd900c11	-0.070335515
192	0xbfcfc13e	-1.6230848
193	0xbf9afdc6	-1.2108696
194	0x3dc1ff56	0.094725296
195	0x3f4093f6	0.7522577
196	0x3e970337	0.2949464
197	0x3e8e09fa	0.27741987
198	0x3e94ab07	0.29036734
199	0xbf07f6ae	-0.5311078
200	0x3be82512	0.0070844973
201	0xbdd05ea8	-0.10174304
202	0x3eefce49	0.4683707
203	0x3edb2066	0.42798156
204	0x3ef38e09	0.47569302
205	0x3f5f82e2	0.87309086
206	0x3ed1b187	0.40955755
207	0x3ed9ab99	0.4251373
208	0x3f0da3f7	0.55328315
209	0xbdea7aff	-0.11449241
210	0xbf016c26	-0.50555646
211	0xbf1972ab	-0.59940594
212	0x3d54d23c	0.051958308
213	0xbf75a39f	-0.9595279
214	0xbf5dacf6	-0.8659204
215	0xbf1aefaf	-0.6052198
216	0x3bf441c8	0.007454131
217	0xbc8c2792	-0.017108712
218	0x3e9a964d	0.30192795
219	0x3e88b912	0.26703697
220	0x3d8b0ecf	0.06789934
221	0x3ecba94d	0.39777604
222	0xbf85cd5b	-1.0453295
223	0xbf911235	-1.1333681
224	0xbf5bd727	-0.8587517
225	0x3e11931d	0.14216276
226	0xbf0af060	-0.54273033
227	0xbf03f51b	-0.51545876
228	0xbdbd47e5	-0.092422284
229	0x3ebe6156	0.37183636
230	0x3f7b3cd7	0.9813971
231	0xbf914aa8	-1.1350908
232	0xbf654820	-0.8956318
233	0xbec08e6a	-0.37608653
234	0xbe18322c	-0.14862889
235	0x3e2afe6c	0.16698617
236	0xbe9b1a13	-0.3029333
237	0x3e0192fd	0.12653728
238	0x3f35da4c	0.7103622
239	0x3f040797	0.5157408
240	0xbef4673e	-0.47735018
241	0xbe2bbd81	-0.16771509
242	0xbe694057	-0.2277845
243	0xbd60ac95	-0.054852087
244	0xbece428a	-0.4028514
245	0xbf18ba74	-0.59659505
246	0x3e90be70	0.28270292
247	0x3efb05ed	0.4902796
248	0x3f54c74b	0.83116597
249	0xbf3b57ca	-0.7318083
250	0xbf1955e8	-0.5989671
251	0xbf1bb9be	-0.60830295
252	0xbf383ed0	-0.71970844
253	0xbfb30ccb	-1.3988279
254	0xbf8edd19	-1.1161224
255	0xbda17707	-0.07884031

bias f4 [64]
0	0xbe80dfb4	-0.25170672
1	0xbf056263	-0.5210325
2	0xbf369148	-0.7131543
3	0x3edf2558	0.4358318
4	0x3e3a0b5a	0.18168393
5	0xbef00e94	-0.46886122
6	0xbf06cff6	-0.52661073
7	0xbe7b574b	-0.24545018
8	0xbe972ecc	-0.2952789
9	0x3f0f9609	0.5608831
10	0xbd474ee3	-0.048659217
11	0x3e7cec0f	0.24699424
12	0xbe6861a6	-0.226935
13	0x3e19c6d6	0.15017256
14	0x3e5adebb	0.21374027
15	0x3e2c4aa3	0.16825347
16	0xbe410332	-0.18848875
17	0xbf0cc55b	-0.5498864
18	0xbc544b91	-0.01295747
19	0xbeb6e9f8	-0.3572538
20	0xbe6073a3	-0.21919112
21	0xbf0156c6	-0.5052303
22	0xbf397422	-0.7244283
23	0xbe2b561f	-0.16732071
24	0xbf3f7030	-0.7478056
25	0xbe91b3e1	-0.2845755
26	0x3e8d0afe	0.2754745
27	0x3e84bf36	0.25927132
28	0xbd05b32d	-0.03264158
29	0xbe8b4025	-0.27197376
30	0xbed29f6d	-0.41137257
31	0xbe054bba	-0.13017169
32	0x3eaaaa80	0.33333206
33	0x3eb342fc	0.35012043
34	0xbe13e510	-0.14442849
35	0x3e276dac	0.1635043
36	0xbd509a4f	-0.05092841
37	0x3e2ba39b	0.1676163
38	0xbefeaa5b	-0.49739346
39	0x3f011991	0.50429636
40	0xbf1403bf	-0.57818216
41	0xbf2e2f52	-0.68040955
42	0x3e9b0c55	0.30282846
43	0xbf11b8f9	-0.5692287
44	0xbec9f652	-0.3944574
45	0x3e2f1a30	0.17099833
46	0xbecb099e	-0.39655775
47	0x3ec8beff	0.39208218
48	0xbed8d758	-0.42351794
49	0x3cf29276	0.029610854
50	0xbed72612	-0.42021233
51	0xbf2cec95	-0.67548496
52	0xbf079ff1	-0.52978426
53	0x3e7e07e0	0.24807692
54	0xbdb5aacc	-0.088704675
55	0x3e2e2be9	0.17008938
56	0xbed3b67a	-0.41350156
57	0xbe9718da	-0.29511148
58	0x3d97c82f	0.07411229
59	0x3e88c728	0.26714444
60	0xbe06e6cf	-0.13173984
61	0xbf1539c0	-0.58291245
62	0xbf2850dd	-0.6574839
63	0x3e88ebe6	0.26742476

weight f4 [128, 64, 3]
0	0xbf2cb1b4	-0.67458653
1	0xbd84b458	-0.0647971
2	0x3ec01e16	0.37522954
3	0xbf1d3bab	-0.6141917
4	0xbddf3df0	-0.109004855
5	0x3f38f789	0.7225271
6	0xbe01d252	-0.12677887
7	0x3f1dba2c	0.616122
8	0x3e1ea9cf	0.15494464
9	0xbe024ddc	-0.12725013
10	0xbe852eb2	-0.26012188
11	0xbf03b1f6	-0.5144342
12	0xbf5a957c	-0.85384345
13	0xbf870d86	-1.0551002
14	0x3e82a7c1	0.2551861
15	0xbec140b2	-0.3774467
16	0x3daac29f	0.08337902
17	0x3eb325dd	0.34989825
18	0x3f1111ee	0.56667984
19	0xbe3db07c	-0.18524355
20	0xbe94af4b	-0.29039988
21	0xbebf0267	-0.3730652
22	0x3de60016	0.11230485
23	0x3f57c808	0.842896
24	0x3da5878e	0.08082496
25	0xbe83c02d	-0.25732556
26	0xbea983b0	-0.33108282
27	0xbe2ed0f3	-0.17071895
28	0xbf3e3738	-0.7430301
29	0xbe822b1e	-0.2542352
30	0x3e443412	0.19160488
31	0x3efd17da	0.4943226
32	0x3dcb8952	0.09938301
33	0x3e244ddb	0.16045325
34	0xbcc66369	-0.024217324
35	0xbe9de150	-0.30835962
36	0xbf020b9e	-0.50798976
37	0x3d75c35d	0.060000766
38	0xbd1cbe33	-0.038267326
39	0x3e213d85	0.15746124
40	0x3db5828f	0.08862793
41	0xbc3c4f6a	-0.011493543
42	0xbee1bfb0	-0.44091558
43	0xbe6774fc	-0.2260322
44	0x3e11d41b	0.14241068
45	0x3e772679	0.2413577
46	0xbf5ab987	-0.8543934
47	0xbe122f48	-0.14275849
48	0xbebe0bd3	-0.37118396
49	0xbf25aaa7	-0.6471352
50	0xbeda2b31	-0.42611077
51	0xbde11ee5	-0.10992221
52	0xbd9a2a2d	-0.07527576
53	0x3e724f3b	0.23663037
54	0xbec53696	-0.38518208
55	0x3e316cde	0.17326686
56	0xbd004e75	-0.031324822
57	0xbc9b6f4c	-0.018973969
58	0xbedf30f1	-0.43592027
59	0x3d51bd76	0.051206075
60	0x3e463f3e	0.19360062
61	0x3f26256b	0.64900845
62	0xbed5d485	-0.41763702
63	0x3f1125ff	0.566986
64	0xbee0cf6f	-0.4390826
65	0xbe18f069	-0.14935459
66	0x3ee641da	0.44972116
67	0xbe9c7c40	-0.30563545
68	0x3bf2ee1a	0.007413638
69	0xbec94241	-0.3930836
70	0x3ccf0203	0.025269514
71	0xbd2f3d74	-0.042783216
72	0xbef1ae49	-0.47203282
73	0xbdf9701b	-0.121795855
74	0x3dac0fd5	0.08401457
75	0xbee01801	-0.43768314
76	0x3e5d7cf9	0.21629705
77	0x3ec90ddb	0.39268383
78	0xbe07bd15	-0.13255723
79	0xbe4f07d5	-0.20217831
80	0xbcf4a796	-0.029865067
81	0xbee2e5b3	-0.44315872
82	0x3e397a07	0.18112956
83	0x3e0280a0	0.12744379
84	0xbf07a187	-0.52980846
85	0xbea79823	-0.3273326
86	0x3e9fa1c2	0.311781
87	0xbf437acc	-0.7635925
88	0xbd78f911	-0.060784403
89	0x3ec4379d	0.3832368
90	0x3ea168f8	0.31525397
91	0xbebefab9	-0.3730066
92	0x3eadc612	0.33940178
93	0xbf02e73b	-0.5113408
94	0xbe301e68	-0.17199099
95	0x3f08c914	0.5343182
96	0xbec87754	-0.3915354
97	0xbe93e6c7	-0.28887007
98	0xbe568b02	-0.20951465
99	0x3eb0d152	0.345347
100	0xbe1b1a67	-0.1514679
101	0xbeef64a4	-0.4675647
102	0xbeef596f	-0.4674792
103	0xbe435e47	-0.19078933
104	0x3d694221	0.05694783
105	0xbedada6a	-0.42744762
106	0xbedfbad6	-0.43697232
107	0xbe695d01	-0.22789384
108	0xbeef803d	-0.46777526
109	0xbc41d00a	-0.0118293855
110	0x3e068102	0.1313515
111	0x3e42898d	0.18997784
112	0xbed8889d	-0.42291728
113	0xbe9c81fc	-0.3056792
114	0x3ed8507f	0.42248914
115	0xbe5cd5f8	-0.21565998
116	0xbe0464ef	-0.12929128
117	0x3ed9993c	0.4249972
118	0xbef03b5d	-0.4692029
119	0xbed19ddf	-0.4094076
120	0xbe720c86	-0.2363759
121	0xbeaa55ea	-0.33268672
122	0x3e54a53d	0.20766158
123	0x3f277fda	0.6542946
124	0x3e01d0ec	0.12677354
125	0xbcd33660	-0.025782764
126	0xbe7a3f2c	-0.2443816
127	0x3a94473a	0.0011312731
128	0x3c299b37	0.0103519475
129	0x3eb5d32e	0.3551268
130	0xbd8bf813	-0.06834426
131	0xbde4cb4d	-0.11171589
132	0x3d36e46c	0.044651434
133	0xbe514c75	-0.20439322
134	0xbde87d27	-0.11351996
135	0xbdb34179	-0.08752722
136	0x3eadddbd	0.33958235
137	0xbf392fc2	-0.723385
138	0x3e7646b0	0.24050403
139	0x3e0c9f17	0.13732563
140	0xbdc874ec	-0.09787926
141	0x3f15d93c	0.585346
142	0xbd7edef9	-0.062224362
143	0xbea3dfda	-0.32006723
144	0x3e580eeb	0.21099441
145	0xbd3f698e	-0.046731524
146	0xbdbfd5ec	-0.09366974
147	0xbf12b047	-0.5730023
148	0xbe6a40df	-0.22876309
149	0x3dfe5de1	0.1242025
150	0xbe4f3c6a	-0.2023789
151	0xbea54f27	-0.3228695
152	0x3e19aa88	0.15006459
153	0xbe974b3c	-0.29549587
154	0xbe08330c	-0.13300723
155	0x3e15013f	0.14551257
156	0xbf0b04cb	-0.5430419
157	0x3f86d2c0	1.0533066
158	0x3f7b772b	0.9822871
159	0xbef73d97	-0.48289177
160	0xbf6187a0	-0.8809757
161	0x3d87c35c	0.06629059
162	0xbc3d6e07	-0.011561877
163	0xbf5ae107	-0.85499614
164	0x3e528878	0.20559871
165	0xbf0ad26c	-0.5422733
166	0xbf5cc79b	-0.86242074
167	0xbe51c797	-0.20486294
168	0x3f4e24c6	0.8052486
169	0xbedfd05d	-0.43713656
170	0x3dbc4ccc	0.09194335
171	0xbe976ddb	-0.29576
172	0x3e5970b1	0.21234395
173	0x3ef55467	0.47915956
174	0x3b47c0ad	0.0030479834
175	0x3e6b2690	0.22963929
176	0x3ee86235	0.45387426
177	0xbdef86f9	-0.11695666
178	0xbeed6dec	-0.46372926
179	0xbd311612	-0.04323394
180	0xbeb7d4a5	-0.35904422
181	0xbe32207c	-0.17395204
182	0x3e2f0c6d	0.17094584
183	0xbe539180	-0.20660973
184	0x3dbd4cbe	0.09243153
185	0x3e75d585	0.24007232
186	0xbe969cc0	-0.29416466
187	0x3d4b5a25	0.049646515
188	0x3d024ea3	0.031813275
189	0x3dbdcd7b	0.09267708
190	0xbedb33a6	-0.42812842
191	0xbf2134b2	-0.6297103
192	0x3f2b6382	0.6694871
193	0x3f1001ad	0.5625256
194	0x3dea1af6	0.11430924
195	0x3e75f238	0.2401818
196	0x3de8370f	0.113386266
197	0xbd7341ce	-0.059388928
198	0x3e04b92c	0.12961262
199	0x3efb29c0	0.4905529
200	0x3e68ab5a	0.22721615
201	0xbf91bf79	-1.1386558
202	0xbf4c7bbb	-0.798763
203	0xbf23d608	-0.6399846
204	0x3e927402	0.28604132
205	0x3e75692d	0.23965903
206	0xbc900792	-0.017581735
207	0x3efcbd75	0.49363294
208	0x3f1599ed	0.58438
209	0x3f16e7e2	0.58947575
210	0x3ec32095	0.38110796
211	0x3e67db47	0.22642241
212	0x3ef93eff	0.48680875
213	0xbd3f13a8	-0.046649605
214	0x3e0e0caa	0.13872018
215	0x3e627cd3	0.22117929
216	0xbe19266e	-0.14956066
217	0xbdf11661	-0.117718466
218	0xbd7a9c6d	-0.061184336
219	0xbf2f63ba	-0.68511546
220	0xbeaf12f9	-0.34194162
221	0xbf11927b	-0.56864136
222	0xbdcc63d8	-0.09979981
223	0xbe8e56ea	-0.27800685
224	0xbe85254d	-0.2600502
225	0xbe022787	-0.12710391
226	0xbeb21b14	-0.34786284
227	0xbeb14c45	-0.34628502
228	0xbe4e52f0	-0.20148826
229	0xbe0d5cf3	-0.13804989
230	0xbe2b537e	-0.16731068
231	0xbd49c799	-0.049262617
232	0xbe32ddb1	-0.17467381
233	0xbd77755e	-0.060414664
234	0x3e82ef88	0.25573373
235	0x3e79f06c	0.2440812
236	0x3e19d950	0.15024304
237	0xbe8f2e0a	-0.27964813
238	0xbdee42f4	-0.11633864
239	0xbe900918	-0.28131938
240	0xbf3072ac	-0.68924975
241	0xbf4b81d4	-0.79494977
242	0xbf17d2cb	-0.5930602
243	0x3f40a825	0.7525657
244	0x3f1ba846	0.6080364
245	0x3e94c49c	0.2905625
246	0xbebf164c	-0.373217
247	0xbe8fb10c	-0.28064764
248	0xbe054664	-0.13015133
249	0xbe7b0653	-0.24514131
250	0xbf03410b	-0.5127112
251	0xbe84762b	-0.25871405
252	0xbe406666	-0.18789062
253	0x3e2d8ef6	0.16949067
254	0xbe5bbec5	-0.21459492
255	0x3e5c8cad	0.21538039

bias f4 [128]
0	0xbe0622ea	-0.13099256
1	0xbeb27f55	-0.34862772
2	0x3e4c987c	0.19980043
3	0xbe564690	-0.20925355
4	0xbd80cb81	-0.06288815
5	0x3e053854	0.13009769
6	0xbe7680fd	-0.24072643
7	0x3da1fefd	0.07909963
8	0xbcbab065	-0.02278919
9	0xbe96d3d5	-0.2945849
10	0xbeea7025	-0.45788684
11	0xbe6244c0	-0.22096539
12	0xbe4f43c6	-0.20240697
13	0xbe0f62bd	-0.1400251
14	0xbe871040	-0.26379585
15	0xbed2c3d5	-0.41165033
16	0xbe4d6c24	-0.20060784
17	0xbec3f43a	-0.38272268
18	0xbe7cb4d4	-0.24678355
19	0xbe7fbfe3	-0.24975543
20	0xbeddf4de	-0.4335088
21	0xbd407e5d	-0.04699551
22	0xbe7d8164	-0.2475639
23	0xbe12cd7d	-0.143362
24	0xbb18a732	-0.0023293016
25	0xbde15793	-0.110030316
26	0xbdab7046	-0.08371024
27	0xbedce493	-0.43143138
28	0xbe71e42b	-0.23622195
29	0xbe85c16b	-0.2612413
30	0xbe43afd9	-0.1911005
31	0xbeba8384	-0.36428463
32	0xbe9a9255	-0.30189767
33	0xbe276d77	-0.16350351
34	0xbd2664e8	-0.040623575
35	0xbcc12019	-0.023574876
36	0xbecc36ea	-0.39885646
37	0xbe198644	-0.14992625
38	0xbdd50dde	-0.104030356
39	0x3c8e426b	0.017365655
40	0xbe1fb2a8	-0.15595496
41	0xbe8ae852	-0.2713037
42	0xbec52e1a	-0.38511735
43	0xbe7a0f2c	-0.2441985
44	0xbe9812f2	-0.29701954
45	0xbe6b63e1	-0.2298732
46	0xbe5e1bda	-0.21690312
47	0xbd8f2acb	-0.06990584
48	0xbe1a131c	-0.15046352
49	0xbe584559	-0.21120204
50	0xbe591ef4	-0.21203214
51	0xbea2e568	-0.31815648
52	0xbeab1680	-0.33415604
53	0xbe5a27be	-0.21304223
54	0xbd511cc6	-0.05105283
55	0xbeb8993f	-0.36054417
56	0xbe84e66d	-0.2595705
57	0xbe84b0a0	-0.25916004
58	0xbeae27fc	-0.3401488
59	0xbf2b62a9	-0.6694742
60	0xbe4c7711	-0.19967295
61	0xbeccabef	-0.39974925
62	0xbea9d1d9	-0.33167914
63	0xbef8def4	-0.486076
64	0xbe964cdc	-0.29355514
65	0x3d493e64	0.049131766
66	0xbe8f3446	-0.2796957
67	0xbe98242d	-0.297151
68	0x3bb28dd6	0.005449037
69	0xbea557b1	-0.32293466
70	0xbe87dfdc	-0.2653798
71	0xbea97672	-0.3309818
72	0xbe15e145	-0.14636715
73	0xbeb50152	-0.3535257
74	0xbeecd44f	-0.4625573
75	0xbf061140	-0.5237007
76	0xbdd928d0	-0.106034875
77	0xbd83c64e	-0.06434308
78	0xbefb149f	-0.4903917
79	0xbe686284	-0.2269383
80	0xbe9c1c0e	-0.30490154
81	0xbe19fa23	-0.15036826
82	0xbea96c06	-0.33090228
83	0xbdf4326d	-0.119236805
84	0xbf0b60e3	-0.5444471
85	0xbed7e7ac	-0.4216894
86	0xbea05953	-0.3131815
87	0xbd167b23	-0.036738526
88	0xbe143c9e	-0.14476249
89	0xbea06497	-0.31326744
90	0xbe08f80a	-0.1337587
91	0x3d3303db	0.04370485
92	0xbe8fa1e7	-0.2805321
93	0xbe61a278	-0.22034633
94	0xbe7b6763	-0.24551158
95	0xbeb4bf00	-0.3530197
96	0xbeac67ae	-0.3367285
97	0xbe625c53	-0.22105531
98	0xbe22f4d5	-0.15913709
99	0xbf2b8ec3	-0.6701471
100	0xbe0d116c	-0.13776177
101	0xbe703f3d	-0.23461623
102	0xbe82685b	-0.25470242
103	0x3d74df30	0.05978316
104	0xbe8dba35	-0.27681127
105	0x3dffe084	0.12493995
106	0xbeb0d75a	-0.345393
107	0xbe839021	-0.256959
108	0xbd32f4d4	-0.043690518
109	0xbee46ff4	-0.44616663
110	0xbd77b260	-0.060472846
111	0xbe0e8093	-0.13916235
112	0xbd4da659	-0.05020747
113	0xbe99760a	-0.2997287
114	0xbe4ff024	-0.2030645
115	0xbd962237	-0.07330745
116	0xbe9a3c53	-0.3012415
117	0xbe3e3099	-0.18573226
118	0xbd0d8d7d	-0.034558762
119	0xbe3cd4af	-0.18440507
120	0xbd6cdfef	-0.057830747
121	0x3e9fa7df	0.31182763
122	0xbf035164	-0.5129607
123	0xbeab2099	-0.33423308
124	0xbef818a7	-0.48456308
125	0xbe9be9f6	-0.30451936
126	0xbea65e56	-0.32493848
127	0xbe1ef1e1	-0.15521957

weight f4 [256, 128, 3]
0	0xbe623960	-0.220922
1	0x3f0f9fb0	0.5610304
2	0x3f04e208	0.51907396
3	0xbe754994	-0.23953849
4	0xbe8355b0	-0.25651312
5	0xbee4b014	-0.44665587
6	0xbeea153f	-0.45719334
7	0xbe928d41	-0.28623393
8	0xbe3a94ab	-0.18220775
9	0x3e7932c1	0.24335767
10	0x3e5a72ae	0.2133281
11	0xbe2e0e51	-0.16997649
12	0xbe217906	-0.15768823
13	0xbdcb53b9	-0.09928078
14	0xbde25660	-0.11051631
15	0xbf4c90de	-0.7990855
16	0xbec0e7ff	-0.37677
17	0xbe685384	-0.22688109
18	0x3f16f99d	0.5897463
19	0x3edc102d	0.4298109
20	0x3e910f9e	0.28332227
21	0xbdac3555	-0.0840861
22	0xbebe2b3d	-0.37142363
23	0x3defc156	0.11706798
24	0xbf126ea6	-0.57200086
25	0xbe8273cd	-0.25478974
26	0xbe80102b	-0.25012335
27	0xbec00ee0	-0.3751135
28	0xbe089415	-0.13337739
29	0xbec1db94	-0.37862837
30	0x3e88d6c4	0.26726353
31	0xbddc47a9	-0.107558556
32	0x3d9dc7ad	0.07704101
33	0x3f2a5e89	0.665505
34	0x3f289a9b	0.6586091
35	0x3f140925	0.57826453
36	0xbeb63e4c	-0.35594404
37	0x3e39e450	0.181535
38	0xbe8e1afd	-0.27754965
39	0x3aa4561a	0.0012537867
40	0xbd57bcd7	-0.052670326
41	0xbdf7bf25	-0.12097005
42	0x3d4df51b	0.05028258
43	0x3dba6adc	0.09102413
44	0x3d974221	0.0738566
45	0x3e9f284d	0.31085435
46	0x3dcee62c	0.101024956
47	0x3ea53700	0.32268524
48	0xbea399f0	-0.31953382
49	0xbf39dc88	-0.7260213
50	0xbe93af36	-0.28844613
51	0xbf0de16a	-0.5542208
52	0x3eadbc8f	0.3393292
53	0x3d8b9d91	0.06817163
54	0xbe7e671b	-0.24844019
55	0xbf75f4b0	-0.9607649
56	0xbdbde7da	-0.09272738
57	0x3d2da6b2	0.0423953
58	0xbe517232	-0.20453718
59	0xbe8c4580	-0.27396774
60	0x3dfa8e6c	0.12234196
61	0x3e869ccb	0.262915
62	0xbe3b24f0	-0.1827581
63	0xbd45a31d	-0.04825126
64	0xbde44128	-0.1114524
65	0xbd704111	-0.058655802
66	0x3d875482	0.066079155
67	0x3e56e84a	0.20987049
68	0x3d8e1d37	0.06939166
69	0xbdcde88a	-0.10054119
70	0x3d2af854	0.04174073
71	0xbdb16237	-0.08661311
72	0xbdf6a782	-0.12043668
73	0xbeae01b9	-0.3398569
74	0xbea50ae3	-0.32234868
75	0x3cf27b68	0.02959986
76	0xbe9c5a40	-0.30537605
77	0xbc958d68	-0.018255904
78	0x3e31c024	0.17358452
79	0x3f155d01	0.5834504
80	0x3eaa64f8	0.33280158
81	0x3e0f35b7	0.13985334
82	0x3e404558	0.18776453
83	0x3dc4e4f1	0.096139796
84	0xbe17662b	-0.14785068
85	0xbf1c5063	-0.6106016
86	0xbee37947	-0.44428465
87	0xbea9ff7e	-0.33202738
88	0x3e0235a5	0.12715776
89	0x3cbaddf5	0.022810915
90	0xbd5caf40	-0.05387807
91	0x3cccb2ed	0.024987662
92	0x3dd544cf	0.10413515
93	0x3eeb7635	0.45988622
94	0x3e89a7b8	0.26885772
95	0x3efa3951	0.48871854
96	0xbe72b940	-0.2370348
97	0xbee9f9e7	-0.45698473
98	0xbeb0f8e0	-0.34564877
99	0xbdfb7d7c	-0.122797936
100	0x3d7ea19a	0.062165834
101	0xbe370a7a	-0.1787509
102	0x3d89870c	0.06715211
103	0xbeef6cd8	-0.4676273
104	0xbe83892e	-0.25690597
105	0xbcbd37c1	-0.023097875
106	0xbdf7efb0	-0.12106264
107	0xbd92e815	-0.071731724
108	0x3e02ce17	0.1277393
109	0xbdecac68	-0.115563214
110	0xbe18434f	-0.14869426
111	0xbebcefe8	-0.36901784
112	0xbdc22194	-0.09479061
113	0xbeb93225	-0.3617107
114	0xbd688f26	-0.056777142
115	0xbde5cdab	-0.11220869
116	0xbeedda01	-0.46455386
117	0xbf2c3ad0	-0.6727724
118	0xbe57f26a	-0.21088567
119	0xbf1efed7	-0.62107605
120	0x3dd18c60	0.102318525
121	0x3e02f354	0.12788135
122	0xbd3ce0dc	-0.04611288
123	0x3c82e46d	0.015978063
124	0x3baafb48	0.0052179433
125	0x3e21ced8	0.15801561
126	0x3e67fa60	0.22654104
127	0xbd973309	-0.07382781
128	0xbe11c60d	-0.14235707
129	0xbe942581	-0.28934863
130	0xbec19e49	-0.37816074
131	0x3d0ec16a	0.034852423
132	0x3f0855d3	0.5325596
133	0x3e0cfc9b	0.13768236
134	0x3e71713b	0.2357835
135	0x3d209665	0.039205927
136	0x3c5c9e3b	0.013465459
137	0x3ce8d9cb	0.028424164
138	0x3e2a5c3e	0.1663675
139	0x3d8f5d51	0.070002206
140	0xbeb1d672	-0.3473392
141	0xbdd50f69	-0.1040333
142	0xbe34dbdc	-0.17661995
143	0xbe802e16	-0.2503516
144	0xbd8f068c	-0.069836706
145	0xbe46d012	-0.1941531
146	0x3d66d65f	0.056356784
147	0x3dda36d3	0.10654988
148	0x3e45f01b	0.19329874
149	0xbe0c514f	-0.13702892
150	0xbe98e9e1	-0.29865935
151	0x3e0a4617	0.135033
152	0xbe11ff68	-0.14257586
153	0x3d3b7be9	0.045772467
154	0xbdb7cb87	-0.08974367
155	0xbe0322f4	-0.12806302
156	0xbf0db0f9	-0.55348164
157	0xbf234ba3	-0.6378729
158	0xbeb89292	-0.36049324
159	0x3e8a9582	0.2706719
160	0x3e8422b5	0.2580773
161	0x3e803041	0.25036815
162	0x3e8d725d	0.27626315
163	0xbd0cf6b9	-0.03441498
164	0x3ddfa145	0.109194316
165	0x3d0c1739	0.034201834
166	0xbdb9dce6	-0.09075336
167	0xbde4ae5b	-0.11166068
168	0x3e7958c9	0.24350275
169	0xbdbbe48b	-0.091744505
170	0x3e2be4da	0.16786519
171	0xbba038e1	-0.004889593
172	0xbe9c344f	-0.30508658
173	0x3e3332c0	0.17499828
174	0x3c9c8c30	0.019109815
175	0x3e08cf80	0.13360405
176	0x3c7f9370	0.015599117
177	0xbd828aeb	-0.06374153
178	0xbeff1da0	-0.4982729
179	0xbda9c065	-0.082886495
180	0x3e1f2680	0.1554203
181	0x3f03cc31	0.51483446
182	0xbd36baf3	-0.044611882
183	0x3ead6ec7	0.3387358
184	0xbd895f81	-0.06707669
185	0xbe0539cb	-0.13010328
186	0xbe41b0ba	-0.18915072
187	0xbf1ebb16	-0.6200422
188	0xbec4c478	-0.38431144
189	0xbdaf198a	-0.08549793
190	0x3e71845e	0.2358565
191	0x3de81de5	0.11333827
192	0x3e4d27a5	0.20034654
193	0x3e34877e	0.17629811
194	0x3c112916	0.008859893
195	0xbd9f6691	-0.07783235
196	0xbd10787c	-0.035271153
197	0xbdd1ea55	-0.102497734
198	0xbd0ea131	-0.034821693
199	0x3d372587	0.044713523
200	0x3dacc858	0.0843665
201	0x3dd3cd13	0.10341849
202	0xbe840225	-0.25782886
203	0xbeac3124	-0.3363124
204	0x3d6a29e0	0.05716884
205	0xbe8a2532	-0.26981503
206	0xbeaa1bce	-0.33224338
207	0xbf718771	-0.9434729
208	0xbef024ab	-0.46902975
209	0x3d981ccd	0.07427368
210	0xbe48693c	-0.19571394
211	0x3ed9c211	0.42530873
212	0x3e9b3c82	0.303196
213	0x3e25ee64	0.1620422
214	0x3dfc0030	0.12304723
215	0xbc849f14	-0.016189136
216	0xbba29424	-0.0049615074
217	0xbef953ec	-0.4869684
218	0x3e137145	0.14398678
219	0x3d9bac72	0.07601251
220	0xbf7be8dc	-0.9840219
221	0xbe554099	-0.20825423
222	0x3e56a085	0.20959671
223	0xbe166a31	-0.14688946
224	0x3e801092	0.25012642
225	0xbc9cab91	-0.019124778
226	0xbd4df507	-0.050282504
227	0xbe43b2c3	-0.19111161
228	0xbdb82f4c	-0.08993396
229	0xbd984472	-0.0743493
230	0xbcce7657	-0.025202913
231	0xbe92d784	-0.2868005
232	0xbf3a88f9	-0.72865254
233	0xbf024f95	-0.5090268
234	0xbe992f25	-0.2991878
235	0x3e9f31b8	0.3109262
236	0x3d9f1072	0.077668086
237	0x3c9d7c97	0.019224448
238	0x3ca70136	0.02038632
239	0xbcc1bf56	-0.023650806
240	0x3d58e8dd	0.05295645
241	0xbc6ea3c7	-0.014565415
242	0xbe5539ac	-0.20822781
243	0xbdc9a661	-0.098461874
244	0x3d892894	0.06697193
245	0xbee9fc09	-0.457001
246	0xbc2e1d96	-0.010627171
247	0xbf609c77	-0.87738746
248	0xbee7a189	-0.4524043
249	0x3c7c3a4f	0.015394761
250	0xbc989246	-0.018624436
251	0x3c24ee76	0.010066619
252	0x3e9cb48f	0.30606505
253	0xbe506bdb	-0.20353644
254	0xbddffc44	-0.10936788
255	0x3e2469da	0.16056004

bias f4 [256]
0	0xbe9481ac	-0.29005182
1	0xbe156fb3	-0.14593391
2	0xbe822b14	-0.2542349
3	0xbe00d90f	-0.12582801
4	0xbea4f62d	-0.32219067
5	0xbdcc3ddc	-0.09972736
6	0xbe4bb455	-0.1989301
7	0xbe76aa6f	-0.24088453
8	0xbdf23ce5	-0.11828021
9	0xbe69fa8b	-0.22849481
10	0xbdfcc99d	-0.12343142
11	0xbddf2ed8	-0.108976066
12	0xbe14a99f	-0.1451783
13	0xbd929a7d	-0.071583726
14	0xbe68b3a1	-0.22724773
15	0xbe53de6a	-0.20690313
16	0xbe18c9c0	-0.14920712
17	0xbd6b9f6f	-0.057525095
18	0xbd8dd7f2	-0.06925954
19	0xbe8d4aee	-0.2759623
20	0xbda45454	-0.08023897
21	0xbe0808f3	-0.13284664
22	0xbe9c8a37	-0.305742
23	0xbeb2815d	-0.3486432
24	0xbe6976a7	-0.22799169
25	0xbd83a6ec	-0.06428322
26	0xbe02eee1	-0.12786438
27	0xbe0d0d79	-0.1377467
28	0xbe49389f	-0.19650505
29	0xbe239b38	-0.1597718
30	0xbe8b3fe4	-0.27197182
31	0xbe992108	-0.29908013
32	0xbde46196	-0.111514255
33	0xbe4e3d13	-0.20140485
34	0xbd3c3c68	-0.045956045
35	0xbe615ac1	-0.22007276
36	0xbe32a249	-0.1744472
37	0xbe314fb9	-0.17315568
38	0xbe958806	-0.2920534
39	0xbbb51c93	-0.005527088
40	0xbe2d9340	-0.16950703
41	0xbe0aa15f	-0.1353812
42	0xbe40cd29	-0.18828262
43	0xbe530c72	-0.20610216
44	0xbdd82fb1	-0.105559714
45	0xbedfd328	-0.43715787
46	0xbe486cdd	-0.19572778
47	0xbec50b35	-0.38485113
48	0xbe7d4afe	-0.24735638
49	0xbe929f2f	-0.28637072
50	0xbe9f9f82	-0.31176382
51	0xbe3cda63	-0.18442683
52	0xbed5fa97	-0.41792747
53	0xbeb1c2b0	-0.34718847
54	0xbe86f99e	-0.26362318
55	0xbe69aa2b	-0.2281882
56	0xbe755486	-0.23958024
57	0xbe5bd6b5	-0.21468623
58	0xbe46c254	-0.19410068
59	0xbbb2ef7e	-0.0054606786
60	0xbdaa3a55	-0.08311907
61	0xbe2f6c2b	-0.17131107
62	0xbe049146	-0.12946042
63	0xbdd63c8a	-0.10460766
64	0x3d0caa85	0.034342308
65	0xbe4c5fdd	-0.19958444
66	0xbd78cadb	-0.060740333
67	0xbe72f898	-0.23727643
68	0xbe8210f3	-0.25403556
69	0xbe632313	-0.22181349
70	0xbe79394f	-0.24338268
71	0xbdfd7249	-0.12375314
72	0xbe2abcd3	-0.16673593
73	0xbd4ef9cf	-0.050531205
74	0xbe9e48f7	-0.30915043
75	0xbe4f8d14	-0.20268661
76	0xbe24a7e4	-0.1607967
77	0xbe225e3f	-0.15856265
78	0xbe1ca968	-0.15298998
79	0xbe5bc884	-0.2146321
80	0x3c7e9135	0.01553755
81	0xbe1aeecf	-0.15130161
82	0xbde3d695	-0.11124913
83	0xbe61fcdc	-0.22069114
84	0xbe44c8d2	-0.19217232
85	0xbe350a09	-0.1767961
86	0xbdba3422	-0.09091975
87	0xbeb74ee7	-0.35802385
88	0xbeb09477	-0.3448827
89	0xbe9e6b9c	-0.30941474
90	0xbe36a536	-0.1783646
91	0xbe1c38ca	-0.15256038
92	0xbe6ec7d7	-0.2331842
93	0xbe046b44	-0.12931544
94	0x3ccf40c3	0.025299435
95	0xbeb7ed9d	-0.35923472
96	0xbdac4621	-0.084118135
97	0xbe154102	-0.1457558
98	0xbe8f17d5	-0.2794787
99	0xbe24c333	-0.16090088
100	0xbe7de454	-0.24794132
101	0xbec204ff	-0.37894437
102	0xbe3a8c81	-0.1821766
103	0xbe776da6	-0.24162921
104	0xbe730046	-0.23730573
105	0xbe92ef01	-0.2869797
106	0xbe670c4c	-0.22563285
107	0xbd8ffd03	-0.0703068
108	0xbddd6c20	-0.10811639
109	0xbe66b8a6	-0.22531375
110	0xbe51057d	-0.2041225
111	0xbee01100	-0.4376297
112	0xbe7ec558	-0.24879968
113	0xbd9bccef	-0.07607447
114	0xbdbdace0	-0.09261489
115	0xbe72da94	-0.23716193
116	0xbda7e2a4	-0.08197525
117	0xbe7a3bbe	-0.24436852
118	0xbec45697	-0.38347313
119	0xbdc3c3a7	-0.09558802
120	0xbe824480	-0.25442886
121	0xbe24a351	-0.16077925
122	0xbe031e3e	-0.12804505
123	0xbf09a651	-0.53769404
124	0xbe42fd1c	-0.19041866
125	0xbe176e86	-0.14788255
126	0xbe639ad6	-0.22227034
127	0xbdb21ffc	-0.08697507
128	0xbe8ef635	-0.27922216
129	0xbd379c1e	-0.04482662
130	0xbe2a9bef	-0.16661046
131	0xbe2761d5	-0.16345914
132	0xbe12da76	-0.14341149
133	0xbe895e83	-0.2682992
134	0xbe39cbba	-0.18144122
135	0xbe2eb6e1	-0.1706195
136	0xbea10f5c	-0.3145703
137	0xbe11444b	-0.14186208
138	0xbeb4730d	-0.35244027
139	0xbe831d5a	-0.2560833
140	0xbe8e0ef5	-0.27745786
141	0xbe32e6a9	-0.17470802
142	0xbe3b407c	-0.18286318
143	0xbe9a6121	-0.30152228
144	0xbec270d4	-0.37976706
145	0xbe9cfeef	-0.3066325
146	0xbe89665f	-0.26835915
147	0xbe5d28fb	-0.21597664
148	0xbe6a878e	-0.22903273
149	0xbe8d9ecc	-0.27660215
150	0xbe9650f6	-0.29358643
151	0xbd78c3e3	-0.060733687
152	0xbde8be8f	-0.11364471
153	0xbe51adc2	-0.2047644
154	0xbe63055e	-0.22170016
155	0xbe58b698	-0.21163404
156	0x3d46a843	0.04850031
157	0xbe4cb183	-0.1998959
158	0xbe4ee840	-0.20205784
159	0xbd363461	-0.044483546
160	0xbe3e9a68	-0.18613589
161	0xbe8a2434	-0.26980746
162	0xbdb52234	-0.08844414
163	0xbe7b5868	-0.24545443
164	0xbe3479b0	-0.17624545
165	0xbe38203c	-0.17981046
166	0xbebabc15	-0.3647162
167	0xbd952e16	-0.07284181
168	0xbe7dab05	-0.2477227
169	0xbe830d97	-0.25596306
170	0xbe7650a5	-0.24054201
171	0xbe7a7713	-0.24459486
172	0xbc568592	-0.013093369
173	0xbdb81ec7	-0.08990245
174	0xbd33ce7b	-0.043898087
175	0xbdfa1ea6	-0.12212877
176	0xbdccda77	-0.10002606
177	0xbd1ab5ba	-0.037770964
178	0xbe477c52	-0.19481018
179	0xbe6d4944	-0.2317248
180	0xbe75006a	-0.23925939
181	0xbdf568f9	-0.119829126
182	0xbe80cdd8	-0.25157046
183	0xbe67b1c2	-0.22626403
184	0xbde1c2a0	-0.1102345
185	0xbe362f14	-0.17791396
186	0xbe54c355	-0.20777638
187	0xbe4e47bf	-0.20144556
188	0xbe0bec8c	-0.13664454
189	0xbe46d9e8	-0.19419062
190	0xbe0572d7	-0.13032089
191	0xbe8874df	-0.26651666
192	0xbe710937	-0.23538671
193	0xbe4c36ea	-0.19942823
194	0xbda4dbe6	-0.08049755
195	0xbe430874	-0.19046193
196	0xbe4d4258	-0.2004484
197	0xbe832502	-0.25614172
198	0xbe9737a9	-0.29534653
199	0xbe041edf	-0.12902401
200	0xbe61cbd4	-0.2205041
201	0xbebc580e	-0.3678593
202	0xbe8395a8	-0.25700116
203	0xbe7952c6	-0.24347982
204	0xbea30e76	-0.3184697
205	0xbe176fd2	-0.1478875
206	0xbe49157c	-0.19637102
207	0x3d2f0e6a	0.042738356
208	0xbe4f3d1d	-0.20238157
209	0xbd62aef1	-0.05534262
210	0xbea2252b	-0.31668982
211	0xbe65e684	-0.22451216
212	0xbdfad7e7	-0.12248211
213	0xbe963ba7	-0.29342386
214	0xbdf6bec6	-0.12048106
215	0xbe858579	-0.26078394
216	0xbd90233d	-0.07037971
217	0xbe495010	-0.19659448
218	0xbe2a9edd	-0.16662164
219	0xbe133518	-0.14375722
220	0xbcdc84d1	-0.0269188
221	0xbe304459	-0.17213573
222	0xbe13856c	-0.14406365
223	0xbe392131	-0.18079068
224	0xbe1c9de7	-0.1529461
225	0xbf00093f	-0.5001411
226	0xbe3d3c16	-0.18479952
227	0xbc0ec421	-0.008713753
228	0xbe406803	-0.18789677
229	0xbe81f404	-0.25381482
230	0xbe5b2e3e	-0.21404359
231	0xbdbf6d05	-0.09346966
232	0xbe6b822a	-0.22998872
233	0xbeabc15e	-0.33545965
234	0xbe5af6dd	-0.21383233
235	0xbe972802	-0.2952271
236	0xbdaa0902	-0.08302499
237	0xbe10f89c	-0.14157337
238	0xbe2bffa3	-0.16796736
239	0xbd606ddf	-0.05479228
240	0x3bd87953	0.00660626
241	0xbe0bb6cd	-0.13643952
242	0xbe527b65	-0.20554884
243	0xbe38d056	-0.18048224
244	0xbe0750fc	-0.13214487
245	0xbe858f14	-0.26085722
246	0x3b9e5acf	0.0048326026
247	0xbeb41372	-0.35171086
248	0xbe5576ed	-0.20846148
249	0xbe36b92b	-0.17844073
250	0xbe684c21	-0.22685291
251	0xbe2f39a7	-0.17111836
252	0xbe598a6e	-0.21244213
253	0xbe4c27b3	-0.19937019
254	0xbe2c914a	-0.16852298
255	0xbe1927fa	-0.14956656

weight f4 [11, 256]
0	0xbe609bb4	-0.21934396
1	0xbef55a78	-0.47920585
2	0x3b9bd8b4	0.0047560576
3	0xbdd87920	-0.10569978
4	0x3cac093e	0.0210005
5	0x3e1d131a	0.15339318
6	0xbc88e065	-0.016708562
7	0xbd97633c	-0.07391974
8	0x3e65b8b2	0.22433737
9	0x3ef4e9f9	0.47834757
10	0xbdcac085	-0.099000014
11	0x3ee74993	0.4517332
12	0x3e87ac7d	0.26498786
13	0x3dfd1dcd	0.123592
14	0x3e5dcf50	0.21661115
15	0xbf11587d	-0.5677565
16	0x3d5cc0fc	0.05389498
17	0xbecad5f6	-0.39616364
18	0x3e223b1b	0.1584286
19	0x3e4a109c	0.19732898
20	0x3f18075c	0.5938623
21	0xbe64de45	-0.22350414
22	0x3f9c9b1c	1.2234836
23	0xbeafe940	-0.34357643
24	0xbee8620b	-0.453873
25	0xbf2eee7f	-0.68332666
26	0x3e4900e8	0.19629252
27	0x3f578dc8	0.84200716
28	0x3e42219b	0.18958132
29	0x3ba201b6	0.0049440516
30	0x3d6d99ad	0.058007885
31	0x3e614109	0.21997465
32	0xbe23211c	-0.15930599
33	0x3ea13fbc	0.31493938
34	0x3e1fc85b	0.15603773
35	0x3e0e4b92	0.13896015
36	0x3e912ea9	0.2835591
37	0x3e5568cd	0.2084076
38	0xbe9a75e8	-0.3016808
39	0xbede4c99	-0.43417814
40	0x3ee2b04a	0.44275123
41	0xbee13848	-0.43988252
42	0x3f1122b1	0.5669356
43	0xbaf53ab3	-0.001870951
44	0x3cf751f1	0.03019044
45	0x3de21ffa	0.11041255
46	0xbe943c9e	-0.28952497
47	0xbd2d0fc0	-0.04225135
48	0xbe26cbcb	-0.16288678
49	0xbe50adcf	-0.20378803
50	0x3d400c6c	0.046886846
51	0xbb6d5d79	-0.0036219044
52	0xbd6dc9de	-0.058053844
53	0xbf16688d	-0.5875328
54	0xbe6c1d4e	-0.23058054
55	0xbc7d41e8	-0.015457608
56	0x3cff3083	0.031151062
57	0xbf0c30a3	-0.54761714
58	0xbe63f134	-0.2225998
59	0x3e31b255	0.17353185
60	0x3f05cbb6	0.52263963
61	0x3e37bbd9	0.17942752
62	0xbe5e6c41	-0.21720983
63	0x3de49128	0.11160499
64	0x3d3bc476	0.045841657
65	0xbf2a84f0	-0.66609097
66	0xbf283cc1	-0.65717703
67	0x3e4d1f7c	0.20031542
68	0x3edbaa27	0.42903253
69	0xbe4a1e8a	-0.19738212
70	0x3c703877	0.0146619
71	0x3d514062	0.05108679
72	0x3ead22c1	0.33815578
73	0xbf0ee593	-0.5581905
74	0xbdd59496	-0.10428731
75	0x3e81dfd7	0.2536609
76	0x3f019e4b	0.5063216
77	0x3e06a4d0	0.13148808
78	0xbf249036	-0.6428255
79	0x3e253abe	0.1613569
80	0xbe05efb6	-0.13079724
81	0x3ef060cc	0.4694885
82	0x3d8eb2bf	0.06967687
83	0xbef83016	-0.48474187
84	0x3dfcd26f	0.123448245
85	0x3ea68692	0.32524544
86	0xbe9fe22c	-0.31227243
87	0x3daa0ea2	0.08303572
88	0x3ddef6d2	0.10886921
89	0xbe2fda57	-0.17173134
90	0x3d822f25	0.06356648
91	0xbe4bc906	-0.19900903
92	0xbe72c339	-0.23707284
93	0xbdaa6695	-0.08320347
94	0x3c9ffb0e	0.019528892
95	0x3e80640e	0.25076336
96	0x3e8786ab	0.2646993
97	0x3eca04d0	0.39456797
98	0x3e3c21bc	0.18372244
99	0xbe709463	-0.23494105
100	0xbe91fa4d	-0.28511277
101	0x3e673b42	0.22581199
102	0xbe1dbcb1	-0.15404011
103	0xbeeadc1f	-0.45871064
104	0xbdcc8f11	-0.09988225
105	0xbef47c09	-0.4775088
106	0x3e00cd22	0.12578252
107	0x3e4967dd	0.19668527
108	0xbeedd72f	-0.46453235
109	0xbe381505	-0.17976768
110	0xbef3cf95	-0.4761931
111	0x3bd0e2ad	0.006374678
112	0xbed15fe5	-0.40893474
113	0xbea213b9	-0.31655672
114	0xbbf5f3d1	-0.007505872
115	0xbe69a437	-0.22816549
116	0x3e48a7a6	0.19595203
117	0x3e2eae11	0.17058589
118	0x3cce81b3	0.02520833
119	0xbd18c935	-0.03730126
120	0xbd823a44	-0.063587695
121	0x3dad2533	0.08454361
122	0xbc514c4e	-0.01277454
123	0xbf1b2d9a	-0.6061646
124	0x3eb0f524	0.34562027
125	0x3e0db670	0.13839126
126	0x3eef95c6	0.46793956
127	0xbe34781d	-0.17623945
128	0x3d8ab283	0.0677233
129	0x3e848d3c	0.25889003
130	0xbdbca851	-0.09211791
131	0x3e045795	0.12924035
132	0xbd3c644b	-0.045994084
133	0xbdbfb98c	-0.09361562
134	0xb9913708	-0.00027697557
135	0xbdbc7ccd	-0.09203491
136	0x3a74dec2	0.0009341055
137	0x3dde5b68	0.10857278
138	0xbe81412f	-0.25245044
139	0x3e95cf16	0.29259557
140	0x3e8aa65d	0.2708005
141	0x3efb9388	0.49135995
142	0xbd80020f	-0.06250393
143	0xbefd7d0e	-0.49509472
144	0x3d94e9bb	0.07271143
145	0x3d7c0a16	0.061533056
146	0x3ee17a81	0.44038776
147	0x3e2541da	0.16138402
148	0x3f6315aa	0.8870493
149	0x3e1bc2ea	0.15211073
150	0x3e73e5dc	0.23818153
151	0xbda92bb1	-0.082602866
152	0x3d702eac	0.05863826
153	0xbd20544a	-0.039142884
154	0xbc3fe329	-0.011711874
155	0xbe98dd3c	-0.29856288
156	0xbd8f7526	-0.07004766
157	0xbde01db4	-0.109431654
158	0xbd253d1f	-0.040341493
159	0xba6bddb0	-0.00089975726
160	0x3d44c353	0.04803784
161	0x3d581615	0.052755434
162	0xbe24d5e4	-0.16097218
163	0x3f1157ef	0.567748
164	0x3e98d338	0.29848647
165	0x3d9a93c6	0.07547717
166	0xbeefe5bf	-0.4685497
167	0xbe8cd941	-0.27509502
168	0xbdcbebfc	-0.0995712
169	0xbeb93c84	-0.36178982
170	0xbd27b9b3	-0.04094858
171	0x3e536daa	0.20647302
172	0xbe999a18	-0.30000377
173	0x3d65d223	0.056108605
174	0xbe82bfcd	-0.25536957
175	0x3dc4e5f1	0.0961417
176	0xbeb7d48e	-0.35904354
177	0xbd211628	-0.03932777
178	0x3e4fb102	0.20282367
179	0x3f54e66b	0.8316409
180	0x3e948661	0.29008773
181	0xbe4e7a34	-0.20163804
182	0x3d2b159a	0.041768648
183	0x3f571268	0.8401246
184	0xbe9c2263	-0.30494985
185	0x3d35eee9	0.044417296
186	0xbdb8becd	-0.09020767
187	0x3e7d2f28	0.2472502
188	0x3c9f9ae6	0.019483041
189	0xbdc89f1e	-0.09795974
190	0xbc1a563b	-0.009419973
191	0xbe8e2b55	-0.27767435
192	0x3ea8d856	0.3297755
193	0xbd347f93	-0.044066977
194	0xbdc521f6	-0.09625618
195	0x3ef0d851	0.47040036
196	0x3dc68ca2	0.09694792
197	0xbc305271	-0.010761843
198	0xbf0ea74f	-0.5572404
199	0x3e87bea1	0.26512626
200	0x3d14d9d6	0.036340557
201	0xbd76233a	-0.06009219
202	0xbcee1424	-0.029062338
203	0xbeebfce4	-0.46091378
204	0xbdcb9d32	-0.09942092
205	0x3a3b56ab	0.00071463984
206	0xbe5695a7	-0.20955525
207	0xbf017a2f	-0.5057706
208	0xbcd9e6b3	-0.026599264
209	0xbf245647	-0.6419415
210	0xbe8669d2	-0.2625261
211	0x3fa973f0	1.3238506
212	0x3db6f5ca	0.08933599
213	0x3f817951	1.0115148
214	0x3ecee961	0.4041243
215	0xbe34bdcb	-0.17650525
216	0xbe043a98	-0.12912977
217	0xbe24446c	-0.16041726
218	0xbe0fc0bb	-0.14038365
219	0xbf89e3ad	-1.0772606
220	0xbf2a4093	-0.6650478
221	0xbdbe88d8	-0.093034446
222	0xbe6c259e	-0.23061225
223	0xbd09116c	-0.03346388
224	0xbecd7997	-0.40131828
225	0xbed2551d	-0.4108056
226	0x3e88c8c5	0.26715675
227	0xbe94cde9	-0.29063347
228	0x3c6054b9	0.013692074
229	0x3cec10a5	0.02881653
230	0x3e79b8d5	0.24386914
231	0xbd9acc5b	-0.07558509
232	0xbea33583	-0.31876764
233	0xbee34df8	-0.44395423
234	0xbf0bfa45	-0.54678756
235	0xbf1e2ba0	-0.61785316
236	0xbdd045bf	-0.10169553
237	0x3d8e5358	0.0694949
238	0xbed1ff99	-0.41015318
239	0xbe814929	-0.2525113
240	0x3e3c2362	0.18372872
241	0xbec02b61	-0.37533095
242	0x3d6b4ad0	0.057444394
243	0xbede9b14	-0.4347769
244	0xbdbb7061	-0.09152294
245	0x3e3696c8	0.17830956
246	0xbde2bf39	-0.11071629
247	0x3dc7b8c0	0.09752035
248	0xbd0cbae1	-0.03435791
249	0x3ef31dee	0.47483772
250	0x3e07747c	0.13228029
251	0x3d3e03a1	0.04639018
252	0xbf37cf76	-0.71800935
253	0xbd56ff33	-0.05248947
254	0x3ed8da8f	0.42354247
255	0x3dc8c4c8	0.09803158

bias f4 [11]
0	0x3d26e372	0.040744253
1	0x3c4a0fa2	0.012332829
2	0x3e051078	0.12994564
3	0x3d6be817	0.057594385
4	0xbce84e0f	-0.028357534
5	0x3d057a92	0.032587595
6	0xbe3eae84	-0.1862126
7	0xbc7bc06a	-0.015365699
8	0xbdeb1d64	-0.11480215
9	0x3dc11898	0.09428519
10	0xbd9eaab2	-0.07747401
