WEB_APP/media/models/LSTM_model_best_CTU_0.pt (torch, 89910 bytes, 6 tensors)

weight_ih_l0 f4 [256, 16]
00000000: 8190 eb3c 67b1 1e3e 9c29 2f3e 0dc0 433e
00000010: fca4 3b3e 74f5 143e deba b23d 66a8 923d
00000020: b4bc 923d 00aa 073e 14c4 d53d 2cd4 2c3e
00000030: d7a6 d93d 4b7c 8d3d 484f 643e dd67 403e
00000040: b021 ecbd a358 51be 78f7 abbd f704 6fbe
00000050: 9630 0fbe f2f5 3ebe f5b3 1d3c 7daf b9bd
00000060: a0f8 14be 3bb5 4a3d 3001 18be 82c5 e0bd
00000070: 09c9 83be f3cd a0bd 886f d9bd 5e0a a2bd
00000080: ca3d 31bd 6287 1fbd a43d 6d3d 91a2 773e
00000090: d2bc dd3d 2550 d63d ab99 89bc a741 b43d
000000a0: 5255 ba3d 1549 87bd 77b8 a03d 66bb ce3d
000000b0: 902a 2b3d bf39 113e 39c7 b5bc 73b4 cdbd
000000c0: 33aa 2dbe ba0e 02be bfc5 373c bd7d 233d
000000d0: 57cd 9e3c 88ea 893d d07b dd3d 5380 18b9
000000e0: e4d1 363e b67c 7fbd de19 8cbd b92f da3d
000000f0: 4309 9e3d b06c f23d bd25 b6bd cc83 a7bc
00000100: d2d9 0c3e ccc3 913d d187 123e de52 d73d
00000110: e51c a43e 4ddc 983e 6420 aa3e c7e3 9b3e
00000120: b055 a43e 4a39 2d3e 2daf 5b3e 6538 773e
00000130: 9a53 943e f177 d23d ab4c 533d e74a 5c3e
00000140: 452a 783d bb21 323e fe11 f53d c435 203c
00000150: e4d8 a23d 8916 0abd 7d0f 86bd 4a55 243d
00000160: 461d 05bc 077f e83d 4b84 03be aa5b f93c
00000170: 0edc 56bd 4e77 e93c 87dd b43d c8c0 14be
00000180: 71e6 fa3d 9784 c33c af26 2d3d 8209 153d
00000190: a1b2 893d 3f8c b13d 365d 0e3d c1fe 26bc
000001a0: 7e80 8f3d af0d 083d f5fa 373d ec4b 9b3d
000001b0: 17b2 b33c 6e8a b63d 122b cfbb cb02 8c3c
000001c0: bfda cdbd 0798 99bd 944a 3abd 5134 99bc
000001d0: 1384 c63d 42ac 293c de73 8ebc 9a96 793d
000001e0: bf79 0e3c 6f1a 883d 071d 373d 5cbd be3d
000001f0: a63f 983c e1cd 253c aeb1 e0bd a22a f43c
00000200: e349 8e3d dcdd 8f3d 9b01 ba3d 458d f9bc
00000210: 3bb4 a73d 7af1 e3bd c12c 6fbd fe02 e7bd
00000220: 3723 25be 5bf2 73bd 8ccb af3d 78a0 b33d
00000230: f293 5bbb 2db6 c83d 4285 a3ba 7853 f9bd
00000240: fb4f 863e 5061 88bc 7ba2 e7bd 1599 f43d
00000250: 1d48 c53d 47c6 82bd de9f 61be c7f1 ba3c
00000260: ba62 18be f3c3 9e3d c1e8 503e 99f1 623e
00000270: e417 c33d 70e9 213e 42b8 1b3d 02e0 34be
00000280: c200 6d3d 96ee 83bd 9cce 44be cf81 9abd
00000290: 7373 903c 6851 1d3e 8fa0 573d 06ad dcbc
000002a0: a61e 143c 6867 64be 595a 403d b12b b9bd
000002b0: 30e2 12be e83d f93c 9cbc 4d3d 00ba 053e
000002c0: 620e 5abe e442 a83d d55a 663c 3d51 c93d
000002d0: a9fa f3bd 726c a0bd 6b16 3cbd c318 0d3e
000002e0: fc23 da3d fb98 8a3d 5a1e 93bc 3ea5 6b3c
000002f0: 4d80 b63c ce59 233e 14f4 213e 00c3 7cbc
00000300: 641d 083d f335 d83d 7213 703e dcbc 0f3d
00000310: 87af 323d da19 a23e 5a33 5c3e 37ee fc3d
00000320: 5fb3 f33d a54b 1e3e e6cc 9c3e 02b5 ba3d
00000330: 996a 3f3e f15c 8c3e c97c f73d 248d 743d
00000340: 0c4f 613e 06e6 5e3d 51f5 a13d 9f90 fabc
00000350: 3811 bf3b dbfc 503d d1e1 293e 65cb 033e
00000360: 3ef9 3b3e 13e6 8cbb cded c03d 4076 123e
00000370: 40e4 41bd 671d 203e f5d5 2c3d 6283 40bd
00000380: 49ba 93bc f34a 4a3c f61e d23d 853b f83d
00000390: 1a83 d2bc fbca a13c a701 6ebd d5b4 ebbc
000003a0: 933c 3ebd d8c7 96bd e4df 2fbe e186 b0bd
000003b0: cced 7dbd a0c1 62be 9e7c 70be 1423 3ebe
000003c0: e07e eb3d d04f ab3d 8cbe fe3d 96ed 813d
000003d0: ca9d 0a3e 75d7 5c3d 51fa 283e 5826 833d
000003e0: 91b0 a1bd 0b2c ca3d c29f 2a3e 2132 5bbd
000003f0: 960e 02be 9a5d 49bd b59b efbd 3cbe 31be
0.028755428 0.15497361 0.17105716 0.1911623 0.18324655 0.14546758 0.08727048 0.07161026
0.071648985 0.13248444 0.104377896 0.16877812 0.10627525 0.069084726 0.22295868 0.1878962
-0.11529863 -0.20443968 -0.0839681 -0.23341738 -0.13983378 -0.18648508 0.009625425 -0.09066675
-0.14547968 0.04948924 -0.14844203 -0.109751716 -0.25739315 -0.07851782 -0.10616976 -0.07912134
-0.043271817 -0.03894747 0.057920113 0.24183108 0.1082703 0.10464505 -0.016796907 0.08801585
0.09098305 -0.06605736 0.07847684 0.10094337 0.041788638 0.14182185 -0.022189723 -0.100441836
-0.16959457 -0.1270093 0.01121658 0.039914835 0.019385023 0.067341864 0.10814631 -0.00014543654
0.17853504 -0.062374793 -0.06840871 0.106536336 0.0771661 0.11837137 -0.08893917 -0.020448588
0.13754967 0.071174234 0.14309622 0.105138525 0.32053295 0.29855576 0.33227837 0.30447218
0.32096624 0.16916385 0.21453543 0.24142607 0.28970033 0.10276783 0.05158679 0.21512948
0.060587186 0.1739568 0.11966322 0.009778444 0.07951525 -0.033712897 -0.06545923 0.0401204
-0.008124655 0.113523535 -0.12843435 0.030439217 -0.052455954 0.028499272 0.088313155 -0.14526665
0.122509845 0.023866935 0.04227322 0.03638602 0.06723524 0.08669328 0.03475686 -0.010192574
0.0700693 0.033216175 0.044917066 0.0758284 0.021935506 0.08913122 -0.006322273 0.017091176
-0.10051488 -0.074997 -0.04548128 -0.018701704 0.0969316 0.010356011 -0.017389234 0.06093464
0.008696019 0.06645667 0.044705417 0.09313461 0.018585037 0.010119886 -0.1097139 0.029805485
0.069476865 0.07024738 0.090823375 -0.03046287 0.08188673 -0.111300424 -0.05839229 -0.112798676
-0.16126715 -0.0595573 0.08583745 0.08770841 -0.003350493 0.09800372 -0.0012475627 -0.121741235
0.26232895 -0.016647965 -0.113102876 0.119432606 0.09632895 -0.06385475 -0.2203364 0.022820367
-0.14881411 0.07752218 0.20401289 0.22162475 0.09526041 0.15811706 0.03801752 -0.17663577
0.05786205 -0.06441991 -0.1921944 -0.0754429 0.017633175 0.15363085 0.052643355 -0.026937973
0.00904051 -0.22305071 0.046961162 -0.090415366 -0.14344096 0.030425027 0.0502287 0.13059235
-0.21294549 0.082158834 0.014059742 0.09829948 -0.11913044 -0.07833184 -0.045919817 0.13778977
0.10651395 0.0676746 -0.017958809 0.0143826585 0.022277975 0.15952227 0.15815765 -0.015427351
0.033231154 0.10557165 0.23444918 0.03509222 0.043624427 0.31660348 0.21503964 0.123501234
0.11899447 0.15458544 0.30625075 0.09116556 0.18693008 0.2741466 0.12084348 0.059704915
0.2200281 0.054418586 0.079081185 -0.030586539 0.00583091 0.05102239 0.16590048 0.12870558
0.18356797 -0.004299888 0.09420357 0.14302921 -0.047336817 0.15636216 0.042196233 -0.047000296
-0.018033164 0.012346971 0.102598116 0.121207274 -0.02569728 0.019750109 -0.058107045 -0.02877275
-0.046444487 -0.07362336 -0.17175251 -0.08619476 -0.06199436 -0.22144175 -0.23485038 -0.18568069
0.11498809 0.083648324 0.12438688 0.06344144 0.13536754 0.053916413 0.16501738 0.06403798
-0.078950055 0.09871682 0.16662505 -0.053514604 -0.12700877 -0.04916153 -0.11699621 -0.17357725

weight_hh_l0 f4 [256, 64]
00000000: 090b 08be 7f02 053c 4f37 70bd c43a 143e
00000010: 9906 823e 1c35 bf3d 8158 ef3d bf51 a4bd
00000020: adb0 893d ed11 a9bd d00b 98bd e12f 1d3e
00000030: 95fb 27bd d8d0 473e 2442 34bd d509 aa3c
00000040: 15d3 283e 2c43 b6bd f9c7 bc3d a876 733b
00000050: 2ea1 ac3d 4a8a 7c3d 7a35 84bd 5c1d c93c
00000060: 98c5 4a3c eaab 363d 9994 06bb b3a0 5bbd
00000070: 7195 f1bd ea55 8a3d 0c2e 963d bcc6 b4bd
00000080: e9f6 733c 52d0 063e 6548 733a 2249 14be
00000090: 6973 da3b 6541 403d 146e 153e 8bb9 8a3d
000000a0: deb6 31bc e1e2 0f3e a76e f83d 67e3 32be
000000b0: fe28 b4bd 735c 71bd b31a 603d ea75 9dbd
000000c0: 2b1f dabd 5ebe 143d 855f 843d 34f6 a73d
000000d0: 959f 933d 2d54 a6bc e85f 1ebe e3b9 a8bd
000000e0: 1c99 213d 8c51 f43c e5c2 6e3c d643 1bbe
000000f0: 2225 a43c 3477 1dbe 8810 993d 126a 773d
00000100: 0f54 85bc 7afb 1e3c b926 d8bd 647b b83d
00000110: 6429 9c3d b4ea e13d feb6 563e ab27 9bbd
00000120: 54ac 093d 50d6 30bb 3f56 c2bd 45e1 0e3e
00000130: 6b58 d03d 819c 2f3d 6abd 503d c549 03be
00000140: de76 133d 843d a2bc aa73 6b3d 853e e2bd
00000150: dc50 143c f1ba 7f3d 9f2a 893d 614d b9bd
00000160: e256 a83d 988d e43c 5d1e 35be 8f88 8e3d
00000170: e128 d4bd 4787 8f3d d730 ea3d 61ad b33c
00000180: a0a9 173e aa63 813d fd2d 3dbe b173 83be
00000190: 5808 b5bd a0d9 1ebd 33f0 473e 6d67 d93c
000001a0: b431 1abe 54dd 17bb f5f9 f1bc 19f7 e73d
000001b0: 58f9 7b3d 6028 6fbd a890 a4bd 7cab 133e
000001c0: b9a4 80bd c701 3abc b507 0dbe 5797 a83c
000001d0: 1de0 703d 7964 c23d a24d eabd b450 5b3d
000001e0: a869 2c3e 8f02 d83d 2c99 cdbc bef9 9a3c
000001f0: 7d3f 383d befe f7bd a256 6fba 8476 15bd
00000200: af18 133e e835 ee3d 8faa 14be 456e b4bd
00000210: 4dfb edbd 6ba9 d93d ab10 973d 5c0b ab3d
00000220: 1bfa ffbd 7850 f8bd e9bd 933d 7ed6 1dbd
00000230: 6ca3 063d dbdc 18bd 88bf f93d 7029 463d
00000240: 62d4 5abb 4127 203e 8dfe bd3d cab0 41bd
00000250: 9ef2 503b cb94 cabd dc13 443e 3ed9 b73c
00000260: 1835 98bd 2756 df3b 7569 27be 2c58 e33d
00000270: 75b4 8cbd d3da b5bd f6ac b5bd 66b0 133e
00000280: 8d36 0bbe 22d9 ae3d 58a4 7cbd 01d9 9b3d
00000290: 2b2d b13c 8259 65bb d556 84bd ed59 883d
000002a0: 5516 b0bd 4b4a 69bd 02ec 57bd 3d53 2fbd
000002b0: 055d 833c 22c6 c9bd dbef 463d 8330 aabc
000002c0: 1cf3 a63d bf8c 6c3d 47ed e3bc c364 9fbd
000002d0: c9a6 b23c 8356 f93d 03c9 fdbd c8bc 3c3d
000002e0: da03 483d 64c3 f4bd d4b5 a2bd 5729 62bd
000002f0: 7c1b acbd 1232 abbd 78ae a43c 89d3 ae3b
00000300: 728b 953d 947a b03d f4e7 c5bd 4841 a03d
00000310: c844 e0bd c67c 613d 9c8c 9e3c 14fc 40bd
00000320: d739 dcbd 05ed 273d 613c 8e3c c43d 83bd
00000330: 1317 09be 7df1 03be 2f9b 113e cec9 0cbd
00000340: 6f25 7e3c 671e c13d 2ac0 b7bc 46d8 2d3e
00000350: 4cee 923b 2ee7 483d 6052 4c3e 7f9a 053d
00000360: bf0d 82bd 8245 613c 7667 7dbe 8452 083e
00000370: f3fa 63bd 46c6 373d 49b5 62bd 5da0 26bd
00000380: d750 883d 3b07 1b3e 9f89 45be d930 08bd
00000390: 6e26 d5bd f615 f23d 7c12 a4bd 62d2 86bd
000003a0: 2586 523c 277d dfbd d898 ffbd 5400 e43d
000003b0: 6399 a1bd 65a2 98bd ae02 9b3c 0377 fc3d
000003c0: 2130 c9bd c392 223d 69e8 b5bb fffb 913d
000003d0: e2d2 f13d deee 5abd 46cd 0d3d e63b 063d
000003e0: 0c08 ca3c 1e60 38bb aa87 f43d bd67 b43d
000003f0: db71 ebbd f7f8 cfbd 251c b4bd 06a0 903d
-0.1328546 0.008118271 -0.058646496 0.14475542 0.2539566 0.09336302 0.11686803 -0.08023404
0.06723151 -0.08255372 -0.07424128 0.15350296 -0.04101141 0.19513261 -0.04400839 0.020756641
0.16486771 -0.08899531 0.09217829 0.0037149582 0.0842918 0.06165532 -0.06455512 0.024550132
0.012376212 0.044597544 -0.0020535348 -0.05362005 -0.11796082 0.06754668 0.073330015 -0.08826968
0.014890411 0.13165405 0.0009280502 -0.14481023 0.00666659 0.046937365 0.14592773 0.06773671
-0.010846822 0.14051391 0.1213048 -0.1746956 -0.08796881 -0.058926057 0.054712962 -0.07688506
-0.10650476 0.03631436 0.064635314 0.082012564 0.07208172 -0.02030381 -0.15466273 -0.0823858
0.039452657 0.02982404 0.014572834 -0.15162596 0.020037238 -0.15377504 0.07473856 0.06040389
-0.016275434 0.009703511 -0.10554261 0.0900791 0.07625082 0.11031094 0.20968243 -0.075759254
0.03361161 -0.002698321 -0.094891064 0.13953121 0.101731144 0.042873863 0.05096189 -0.1282111
0.036002032 -0.019804724 0.057483353 -0.11047081 0.0090524815 0.06243414 0.066975825 -0.09047962
0.082196966 0.027899548 -0.17687364 0.0695964 -0.103593595 0.07008224 0.11435097 0.02193326
0.148108 0.063178375 -0.18474574 -0.25674203 -0.08839482 -0.038781762 0.19525222 0.026538575
-0.15058023 -0.0023172693 -0.029538134 0.11326427 0.06151709 -0.058388114 -0.080354035 0.14420885
-0.06281418 -0.011352963 -0.13772471 0.020579977 0.05880748 0.0949182 -0.114405885 0.05354376
0.1683718 0.10547363 -0.025097452 0.018917914 0.044982422 -0.12109135 -0.0009130036 -0.03648998
0.14364885 0.116313756 -0.14518188 -0.08810095 -0.116201974 0.10628017 0.07376226 0.08351776
-0.12498876 -0.12124723 0.07213957 -0.038534634 0.032870695 -0.03732 0.12194735 0.04837936
-0.003339075 0.15639974 0.09277067 -0.04728774 0.0031882892 -0.09891661 0.19148201 0.022442456
-0.07432002 0.00681569 -0.16348822 0.11100802 -0.06870357 -0.08879628 -0.0887088 0.1442276
-0.13595028 0.085375085 -0.061680168 0.076097496 0.021627983 -0.0034995978 -0.064618744 0.06657777
-0.085980095 -0.056955617 -0.05271531 -0.04280399 0.016035566 -0.09852244 0.048568588 -0.020775085
0.08151838 0.057751413 -0.027823104 -0.07782891 0.021808045 0.12174704 -0.123918556 0.046078473
0.048831798 -0.1195133 -0.07944837 -0.055215206 -0.0840368 -0.083591595 0.020102724 0.0053352755
0.07301988 0.0861713 -0.09663382 0.078249514 -0.10950619 0.055050634 0.019354157 -0.0471154
-0.107532196 0.040997524 0.017362775 -0.06408265 -0.13387708 -0.12885089 0.14219354 -0.034372143
0.015511855 0.09429627 -0.022430498 0.16977033 0.0044839736 0.049048595 0.19953299 0.032618042
-0.06350278 0.013749482 -0.24746498 0.13312727 -0.055659246 0.044866823 -0.05534867 -0.040680278
0.06656044 0.15139477 -0.1929078 -0.03324971 -0.104077205 0.11820595 -0.08011338 -0.06583096
0.012849365 -0.10912543 -0.124803245 0.11132875 -0.07890584 -0.07452849 0.018922176 0.12327387
-0.09823633 0.039690744 -0.005551387 0.071281426 0.11807801 -0.053450458 0.034619592 0.032771967
0.02466204 -0.0028133462 0.11939938 0.08808849 -0.114963256 -0.10154908 -0.08794431 0.07061772

bias_ih_l0 f4 [256]
00000000: 0caf d33d 4bb6 72bc 7cb3 f83b 5050 123e
00000010: 3a76 3dbd 9652 ccbc cd56 89bd 3933 ce3d
00000020: abbb 8d3d 81e2 67bb 4a4d 4a3d 22e5 cb3d
00000030: 709d 623d 6d09 153b 4b47 38bd 0f91 55bc
00000040: 2be7 d7bc 6830 0ebd 6058 c7bc 3693 cf3b
00000050: c402 953c c4d9 16bd 3729 063e 4d7a e0ba
00000060: 782b ddbc 3074 013e 201b ad3c 1387 84bd
00000070: 8753 543e 6864 a4bd 68e2 263e 0713 86bd
00000080: 1f49 5b3d c5af 3f3d 88ae 4f3d 9eee a93c
00000090: e8c9 e6bd 05db d1bd 3448 033e 90c3 a83d
000000a0: 9fda 37bd e322 0e3e 88fd 14bd 57e0 7dbd
000000b0: 491d 2b3e e306 b43d 15a5 803d 17ba 163e
000000c0: cb3b 46bd 8391 7dbc 8247 14bd 5073 333e
000000d0: d616 c13d de08 353d 5146 26bc d9c2 92bd
000000e0: de2b 9dbd 64d2 a73d f03c 4d3d c8e7 1c3a
000000f0: 2d91 c5bd 318d 033e 2a46 123e 2833 99bc
00000100: b988 413e 4674 633d 207c 733c fac1 4d3c
00000110: 54e3 163e e5b9 80bd fb5d 383e b62d 23bc
00000120: 7f4f 533e 8701 743d b9d8 1f3e 5445 4d3d
00000130: ec96 c3bc 6049 3b3e 21fc 423d 802c f03d
00000140: 2a63 3a3d bf69 8fba 24fd dc3c 2b8e 963c
00000150: 3720 04bd 1a56 ea3d f3f1 babc 7411 c13d
00000160: 9363 3d3d e3a3 353e 1dc4 853c 278e bc3c
00000170: a23b 433e 6e67 a4bd c051 3c3d 2601 183e
00000180: e144 113c 58e1 b23d a973 913d 1541 1c3d
00000190: 0ae7 443e e07e 063e eda2 e23b 67d8 4d3d
000001a0: 188f 05bd 8405 abbc 358c 423e 849f 423e
000001b0: 7a4c ba3c cf11 6b3b b60a 813d c0ef c73d
000001c0: 79df 2d3e 329b 09bd 0b0c d93c af5b 973d
000001d0: b3d2 093e 58f5 113e cc39 5e3e 7a2c 183e
000001e0: b215 12bd 70f7 8a3d 0cf0 773d f3ce 6ebd
000001f0: a8d6 6abc aafe 913d 15e0 47ba c9f1 5d3d
00000200: e4ec 863d e12c 9d3d 7678 e8bd 33ca 5e3c
00000210: e181 b63d f8a8 e53d 4e0d debd 47c6 3bbd
00000220: 5df9 c83d 70a7 d4bd 2167 ed3a cbc1 013e
00000230: b9f5 a6bd f706 96bd 8358 103e c0d9 9dbd
00000240: f687 d33d 29aa fe3c c85f 343d 833c 513d
00000250: 95a7 f8bd ef4f 813c 904d 0f3e a3b1 74bd
00000260: 5916 68bd e799 1b3e 4c64 71bd afaf 213d
00000270: e87b 2fbe b808 ccbd bfab ec3b 24eb abbd
00000280: b633 073e 2d39 d63d 5e59 37bd 187c edbd
00000290: 811a bc3c 2276 743d 325f b93a ec2f 80bd
000002a0: 2b61 b23c 0470 653b 25b5 6b3d 51d5 e83d
000002b0: 464a 9eb9 b1c1 a13d 2f9a ab3d bb93 3b3c
000002c0: 275b 7a3c 6371 89bd 956a d6bd f5a1 173e
000002d0: 9b6c 4a3d c4d0 663c 0940 a7bd 3b11 02be
000002e0: 751e 963d f54b c23c d09d 1f3e b305 02be
000002f0: 505b d4bd 131f f0bd a9c5 8ebd fc6a 6ebd
00000300: 60c1 f83b 52a1 553e b117 073e d639 bf3d
00000310: c28f 1b3e bc6d ad3d 536d 3c3e f96f 80bd
00000320: 5c06 513e 322e b8bc 5e80 0bbc 8dc7 1fba
00000330: bdb0 743e 8440 293e 29b7 193e 0c25 a1bc
00000340: 54fa 1abc a65c f2bc 459b 193e be88 b13d
00000350: cb71 dbbc ffee da3d 5f56 d1bc f76a c8bc
00000360: 2ec7 f63d b88b 463e a88a 3d3e 6305 533e
00000370: f990 843d 4ddf 4ebd 5c72 b93d 3faa a23c
00000380: b645 7f3d 6e32 42bd b0e8 0a3e b2e2 eb3d
00000390: df02 403e cbfc 303e df26 a73d b88d 4c3a
000003a0: 22d2 123e ef1e 1ebd 30fc f93d 984f dd3d
000003b0: ea98 2e3e 9369 d33d 2ccc dabc ce4a 13bd
000003c0: ab89 ae3d 3db2 d83d 6ef1 ba3d 0ea6 323e
000003d0: 5d07 ed3d a05d 203e aed6 5b3d c347 bf3d
000003e0: 3aac 2d3e 8915 533e d041 133d 78fd 99bd
000003f0: dd72 363e 840c 3f3e ef84 953d 1bf9 ee3b
0.10336122 -0.01481397 0.0075897556 0.1428845 -0.046255328 -0.024941724 -0.06706009 0.10068364
0.069205604 -0.003538281 0.049390115 0.09955813 0.055325925 0.0022741214 -0.044989865 -0.013035073
-0.026355347 -0.034714133 -0.024334133 0.0063346876 0.018189795 -0.03682877 0.1310166 -0.0017126292
-0.026998267 0.12641978 0.021131098 -0.06471076 0.20734988 -0.080269635 0.16297305 -0.06546598
0.05353653 0.046798486 0.050703555 0.020743664 -0.11268979 -0.10246853 0.12820512 0.082404256
-0.044886228 0.13880496 -0.0363746 -0.061981525 0.1671039 0.08790376 0.06281487 0.14719425
-0.048396867 -0.015476587 -0.036201008 0.17524457 0.09428184 0.04419791 -0.010148601 -0.071660705
-0.076743826 0.08194426 0.050106943 0.0005985466 -0.09646831 0.12846829 0.14284578 -0.018701151
0.18899812 0.05553081 0.014861137 0.012558455 0.14735156 -0.062854566 0.180046 -0.009959629
0.20635794 0.05957177 0.15610017 0.050114945 -0.023875676 0.18289709 0.04760373 0.11727238
0.045504726 -0.0010941549 0.026976176 0.018378338 -0.032257285 0.11442204 -0.022820449 0.09427157
0.04623754 0.17738299 0.016328866 0.023017002 0.19065717 -0.0802754 0.0459764 0.14844188
0.00886652 0.08734387 0.071021385 0.038148005 0.1922876 0.13134336 0.006916395 0.050255205
-0.032607168 -0.020876653 0.18998797 0.19006163 0.022741545 0.003586877 0.06300871 0.097625256
0.1697978 -0.03359527 0.026495 0.07390534 0.13459282 0.14253747 0.21701735 0.14860716
-0.03566522 0.06785476 0.06053166 -0.05830283 -0.014333405 0.071286514 -0.00076246384 0.054185662
0.06588152 0.076745756 -0.11351101 0.013598013 0.08911491 0.11213869 -0.108423814 -0.04584339
0.09813187 -0.10383499 0.00181124 0.12671582 -0.081523366 -0.07325547 0.14096265 -0.07707548
0.10328667 0.031086998 0.044036657 0.0510831 -0.12141339 0.015785186 0.13994431 -0.05973972
-0.056661937 0.15195428 -0.05893354 0.039474186 -0.1713711 -0.099626005 0.007222622 -0.08394459
0.1320332 0.10460124 -0.04476296 -0.11595935 0.022961857 0.059682973 0.001414275 -0.0625914
0.021774849 0.0035009393 0.0575458 0.11368812 -0.00030191446 0.07898272 0.083790176 0.011448796
0.0152805215 -0.0671108 -0.10469548 0.14807875 0.04941998 0.01408786 -0.081665106 -0.12701885
0.07330028 0.02371786 0.15587544 -0.12697487 -0.10368979 -0.11724677 -0.069712944 -0.058207497
0.0075914115 0.2086232 0.13192631 0.09337203 0.15191558 0.08468196 0.18401079 -0.06271357
0.20412582 -0.022482965 -0.008514492 -0.0006095104 0.23895545 0.16528517 0.15011276 -0.019670986
-0.009459097 -0.029585194 0.15000637 0.086686596 -0.02678766 0.10690116 -0.02555388 -0.024465067
0.12049709 0.19389236 0.18509924 0.20607524 0.06472964 -0.050505925 0.090550154 0.01985657
0.06232234 -0.047411375 0.13565326 0.11517848 0.18751095 0.17283933 0.08161711 0.00078031
0.14337972 -0.03860372 0.12206304 0.10806197 0.1705052 0.10322871 -0.026708685 -0.03596001
0.08522352 0.10580871 0.0912808 0.17446157 0.1157367 0.15660715 0.05367153 0.09339859
0.1696023 0.20613684 0.035951436 -0.075190485 0.17817254 0.18657118 0.07300746 0.0072928793

bias_hh_l0 f4 [256]
00000000: efd8 083e 017b fe3d d395 6bbd 87a6 223e
00000010: 0782 42bd 05d7 c63d d0a7 5dbd 95db adbd
00000020: fee2 c53d 6e76 ce3d ad76 373d da47 8bbc
00000030: 9eee a63d 55ff 48bd de45 613d b36f 7abd
00000040: 7624 533e d682 903d f933 04bc 6761 65bd
00000050: 19fb 21bc 64fe 8d3d d892 c73d 3783 88bd
00000060: 38ea ed3c 5b5b 753d 907d 1fbd 8035 1d3e
00000070: bdbe cdbc aad8 adbd 5dc8 153e 66b6 883d
00000080: bd60 023c 7564 be3d 20fb 63bb 8a25 7e3d
00000090: eb49 d03d 01b1 af3d 72c6 4c3d 5b5c 0f3e
000000a0: 4968 6bbc 5d6a 743d 6f0d 4b3c d8ba 9fbc
000000b0: 4d0d 4cbd bcea 1e3d a01d fa3c 0646 7d3d
000000c0: 49a9 18bc 8bcd c13d 41e0 4e3d 4597 6abb
000000d0: 0a6d 81bd 28ee 0d3e 7e6a 903d 04f5 6b3d
000000e0: 32d7 05be 6efe 2a3e 3795 fb3d 9e5f f4bc
000000f0: 65fb 053e 6324 2f3e 88de 85bd c84e a53d
00000100: f9cb bc3a d4e5 c33b d730 253e 1a3b d0bb
00000110: 3158 2c3e dba6 eb3b 976a 37bd b3e5 75bd
00000120: 7fcb 473e 4e23 c63d c866 5cbc 58b3 4a3d
00000130: b8a4 9ebc e743 233e 3320 5b3d 8099 ed3c
00000140: 41b8 3b3d b529 df3d d335 883d ca76 9f3d
00000150: 2f32 353e 940d b03c ce89 de3d c606 e2ba
00000160: 3d34 543c 84e6 0d3e 8780 43bd 61fa a7bc
00000170: a147 033e 52a9 ff3d e020 283d 6875 933c
00000180: 100f 703c 1937 a1bc b5c1 253e 71d7 673e
00000190: 0fee 813e 1892 883d 0874 ed3d 4244 f23d
000001a0: 3c18 493e 8f54 0e3e 2299 9d3b 217a 063d
000001b0: 410b 673d 8813 023e 9702 e93c 0993 1f3d
000001c0: f44e be3d 5a64 0b3e 7af6 d2ba b3f3 dd3c
000001d0: c9ca 5fbd 2cbb 923d 7c6e 193e 9faf 9e3d
000001e0: 005f 283e f4bb e9bb febc 493d feae 0dba
000001f0: 1eb6 e93d 72ca 0b3e 78fa 2bbb e42c 673d
00000200: 931e f8bc 52b2 023d a01d 44bd 3dcb d53d
00000210: cfeb 4fbc e6b9 3fbc c5ea e63c e196 2e3d
00000220: 6c70 25bd fa93 b1bc 4d6f 783c cc67 0c3d
00000230: ccf1 023e b96c 8e3d 30fc 873d c5f9 34bc
00000240: 4e3f 043e 8d65 8b3c 9371 1ebc 152b c73d
00000250: 7b42 ebbd da2f 96bd b1e1 d8bc 02c1 a53d
00000260: 6f25 7b3d 3c68 0b3e 4dc3 f0bd f830 e83c
00000270: 59b1 08be 7e41 d8bd 69ab bdbd fa95 ec3d
00000280: 1a6c b0bd e962 b8bd e71e 01be e225 e4bd
00000290: 7449 dc3d 4f56 aa3d 9d7c e83d 1f36 fd3d
000002a0: adce babd 1a1e c23d bbb4 1abe 1d8e e53d
000002b0: 7744 903d 6134 c63d 51c7 d13d e477 013d
000002c0: 81d0 e9bd 806d 49bd 1ea5 8b3d b79b 303c
000002d0: da26 643d 8f67 243e 18c7 ecbd 5ff6 563a
000002e0: 7a48 d1bd 6118 903c c5ca 1d3d a838 cfbd
000002f0: 7ba0 36bd e9c7 c0bd c9a5 da3d be8e 7bbd
00000300: 7065 593e fe3e 813d 89a7 8a3c d74e 90bc
00000310: 031d 0f3e 2eca e1bc fa3f 85bd 4814 1f3e
00000320: 680c d8bb 3e4e 843d 4d02 0b3c c6a4 6b3e
00000330: 456f 503e b374 123e ae68 9b3d 3099 d53d
00000340: 3429 753e 8736 253e cf02 f93c 5bda 80bc
00000350: e57d 283d 8972 e7bb bd22 433d ec42 bf3d
00000360: 8285 6a3d ac9d c63d 98bb e7bb 43ef e73c
00000370: 2c72 fd3d 3b0c f93d f5ad 653d 1361 323d
00000380: 250a 013c 501c bf3c dcee 893e 5142 dd3d
00000390: 8896 803e c320 f33b fae3 043e 32a8 b83d
000003a0: 3b23 283d 221c e0bc 8cc4 973d 4d35 023e
000003b0: 66c8 d73d cbb2 463d 40c4 76bc 87e6 fb3d
000003c0: 1fd3 45bc 7086 3dbd 1bba 2e3d bb4f 243e
000003d0: ea6f 803d c484 d33d 19e8 eb3d 7649 28bd
000003e0: 9864 e73d d3d2 e43d d20d 6a3e 4efd bd3d
000003f0: 45ec 5abd 579d a73d 6875 6dbd 8983 663d
0.13364004 0.12425805 -0.05751593 0.15883838 -0.047487285 0.097089805 -0.054115117 -0.084891476
0.09662436 0.100811824 0.044790912 -0.017002035 0.08150981 -0.04907163 0.05499827 -0.06114168
0.20619377 0.07056205 -0.008069032 -0.056001093 -0.0098865265 0.06933287 0.09744805 -0.06665652
0.029042348 0.059901576 -0.038938105 0.1535244 -0.025115365 -0.08488591 0.14627214 0.06675415
0.0079576345 0.092965044 -0.0034787133 0.06204752 0.10170349 0.08578683 0.04999394 0.14000075
-0.014368125 0.05967175 0.01239334 -0.019498274 -0.049817372 0.03879808 0.030531704 0.061834358
-0.0093177045 0.09463032 0.050506834 -0.003579573 -0.06319626 0.1386038 0.07051562 0.057606712
-0.13070372 0.1669862 0.1228432 -0.02983075 0.1308418 0.17103724 -0.06536585 0.08071667
0.001440405 0.0059783254 0.16131912 -0.0063547017 0.16830517 0.0071915216 -0.044779386 -0.06003351
0.19511221 0.096747026 -0.013452239 0.04948744 -0.019365653 0.15943871 0.053497504 0.029003859
0.045830015 0.10896627 0.06650891 0.07786329 0.17694925 0.02149085 0.10866128 -0.001724445
0.012951908 0.13857466 -0.047729995 -0.020505132 0.12820293 0.12483467 0.041046977 0.01800032
0.014652029 -0.019679593 0.16187175 0.22640778 0.25376937 0.0666849 0.11594397 0.118294254
0.19638151 0.13899444 0.0048095146 0.032831315 0.056407217 0.12702763 0.028443618 0.038958583
0.09292403 0.136125 -0.0016095184 0.027093744 -0.05463675 0.071646065 0.14983553 0.07748341
0.1644249 -0.0071330015 0.049252503 -0.0005404799 0.11411689 0.13651446 -0.002624182 0.056439295
-0.030288016 0.03190834 -0.047879815 0.10439155 -0.0126904985 -0.0117020365 0.028188119 0.042624358
-0.040390417 -0.021677006 0.015163255 0.034278676 0.1278755 0.06954331 0.06639898 -0.011045878
0.12914774 0.017016197 -0.009670633 0.09725014 -0.114872895 -0.07333346 -0.026474806 0.08093454
0.061314996 0.13613981 -0.11756001 0.028343663 -0.13348903 -0.10559367 -0.092612095 0.11552043
-0.08614369 -0.090032406 -0.12609445 -0.11140038 0.107561976 0.08317243 0.11351893 0.123638384
-0.091214515 0.09478398 -0.15108006 0.112087466 0.07044309 0.09677959 0.10243095 0.031608477
-0.11416722 -0.049176693 0.06818603 0.010779313 0.055701114 0.1605513 -0.115614116 0.00082001643
-0.10218902 0.01758975 0.038523454 -0.10118228 -0.04458664 -0.0941313 0.10676152 -0.061415426
0.21230102 0.06310843 0.01692559 -0.017615719 0.13975911 -0.027562227 -0.06506343 0.1553508
-0.006593276 0.06460236 0.008484435 0.23012075 0.20354946 0.1430233 0.075883254 0.10429609
0.23941499 0.16134082 0.030396847 -0.01572912 0.041135687 -0.007063214 0.04764055 0.09338936
0.05725623 0.09698042 -0.0070719235 0.028312331 0.12375292 0.12160536 0.0560741 0.04354961
0.007875954 0.02332893 0.26940048 0.108036645 0.25114846 0.007419677 0.12977591 0.09016456
0.041049223 -0.027357165 0.07410535 0.12715645 0.1053627 0.048510354 -0.015061438 0.12299829
-0.012074261 -0.046270788 0.042657953 0.1604604 0.06271346 0.103280574 0.115188785 -0.041085683
0.112984836 0.11173024 0.22856835 0.0927683 -0.05344798 0.08184307 -0.057973295 0.056277785

weight f4 [9, 64]
00000000: 9012 14be 45ad 8bbe 7f88 45be f838 583e
00000010: d41b 8a3e 11e4 143e 22e9 55be 6b58 58be
00000020: 65e5 60be df87 d73d 3c01 54be 4f69 07bd
00000030: 1ef9 223e 123d 47be 0f8d 6d3e 9a08 723c
00000040: 220e eb3d 64ff 673e eec5 18be fe4a 89bc
00000050: 5d47 8b3c db47 ed3d 2341 173e c39c a9be
00000060: 447b 253d 9c56 f4bc 34ea 10bd 27f6 0e3e
00000070: 95c5 fd3b 9408 063e 365a 0a3e 2556 4bbd
00000080: deeb 43be 71c2 60bd 19e6 ae3c befc 813e
00000090: 363d bbbd 1d0d e5bc 9aab 20bc 6aa4 56be
000000a0: 2ec1 033e 4a43 823d 9b52 a0be 0504 383d
000000b0: 4c5b 243e af4c 0abd 5252 9cbd 12be 5abe
000000c0: 0251 4f39 1627 17be 4db1 05be d72a 81bb
000000d0: e51d 97bd c5c6 6d3d 4e7a 56be 1d07 10be
000000e0: e1db b6bd a676 23be 59f5 babd 6c15 7bbd
000000f0: e3cb fc3d a4fd cabd a2df cd3c 1e47 9c3c
00000100: 25d1 e638 2308 923e 9742 853e c13b 0d3e
00000110: 3c10 a7be fcf8 a3be 7801 6fbd 9ae0 123b
00000120: cfb6 ca3b 181c 5b3d 0a6d 3d3e 4f5d 6bbd
00000130: d5ee c0be 766c 0cbe 11a0 3abe 2e9d 23be
00000140: e515 95be 5d6b f7bd 4db7 3e3e 983e b43d
00000150: 39f2 053d 17eb 893e c2d7 17be c293 3d3e
00000160: c082 313e 8c8f 473d 7a88 a33e a565 9ebe
00000170: e8a8 1d3d 3bbf 60bd e0bc 00be c634 e6bc
00000180: 5fbf 35bd b167 7e3e 0e59 ef3d 6bf9 733d
00000190: 44c5 7abe a62c c03d f6fc 38be 1fab 3f3d
000001a0: be2f 82bc 883c 20bd 2d83 a2bd ea44 e03d
000001b0: e74d dfbd c8d0 b3bd b9ad 37bd 35bf 06be
000001c0: d060 a7be 894c 3ebe 2bfa 2a3e c4b1 003e
000001d0: fb6b d6be 7f19 973d 7e94 373e da57 0a3d
000001e0: 1b37 013d 92d9 2a3e d791 48bd b2af eabd
000001f0: 862b f1bd de26 e53d 0bce d9bd aac5 12be
00000200: 9b94 5b3d c8a9 99bd 0031 8dbc bc0d 07be
00000210: df0c 8a3e 66d4 d23d ac17 79bd c18f 62be
00000220: 72b9 7f3c 8dce 043e 995c 71bd 8151 cdbc
00000230: 320b 583e 42ef f03b e877 13bd 1ff1 a03d
00000240: cf2a 33bd 7fc8 c93d 65a8 cb3d af18 1fbe
00000250: e16f 813c 50ba 873d 772e 4f3d d60a e43d
00000260: 6bdb fe3d 6e9e 593e bab7 c5bc 6085 f1bc
00000270: e5e5 233c 053e 7abd 8bc2 1fbd 1690 0abe
00000280: 4549 bebd bd8d 4ebe 4127 d53c 4d00 bebd
00000290: ac09 9a3e 8374 b7bd f1df e4bd 6a58 d7bd
000002a0: bfff 9a3e c17c 5b3d 3020 88be 61e5 1a3d
000002b0: 346a 083c 0d67 cb3d fdce 0fbd 4fac fcbc
000002c0: 63a9 e43d 4a7e 8dbe 2611 f83c 24b7 be3d
000002d0: 52cf 9b3d f277 153e 4580 d5bd 7efc 7e3e
000002e0: f2da cebd 3e29 9bbd 9058 ba3d 89bf 0c3e
000002f0: 4068 553d b207 783d 96a0 fcbd 2797 8bbc
00000300: 37ac 0abb 54ee 0fbe c6ab a9bb 50d7 2fbe
00000310: 31bb a2bd cf9f f43d 05c0 c3bd e028 6fbc
00000320: 5f11 aa3d b77c 19be 8714 e83c 8157 2cbe
00000330: 4e0e 24be a00c 463e 7b0b d3bd 3bcb 08be
00000340: 0948 f23c b11e cabd 1f2a d13d 7f8d 583e
00000350: a5f5 463d f8c1 c93d cd7b 263e a593 2f3d
00000360: 68c6 2dbe 68d1 d5bd 0b93 1abe a9be 273e
00000370: c724 b7bc eef8 ecbc 1181 55bd 98f8 5dbe
00000380: 4150 a6bd 91d3 a5bd b1bb 52be e4ed c23c
00000390: 45c4 693e b9da f63d 93b4 52bd 643e 273d
000003a0: bf40 cfbc c73d 943d 0907 303d 3685 1dbe
000003b0: 6af0 413d 59a8 92bd d8ca cc3d 2195 df3d
000003c0: aef9 f9bd d3cc 1c3e 92ac 3e3d 1094 bc3d
000003d0: 703a 3c3e 6052 05bb 68cf 3c3e 3e6c 96bd
000003e0: b214 9ebd c340 9e3d 09dd eabd 4d4a 43be
000003f0: c828 033e 2dfc 583d 19a1 45bd f287 043c
-0.14460206 -0.27280632 -0.1929035 0.21115482 0.26974356 0.14540125 -0.20889714 -0.21127479
-0.21962507 0.10523962 -0.20703596 -0.033059414 0.15915343 -0.1945689 0.23198341 0.014772559
0.11477305 0.22656018 -0.14919254 -0.016759392 0.017001802 0.11585971 0.14770941 -0.33127412
0.04040076 -0.029826455 -0.035379604 0.13961087 0.007744501 0.1308921 0.13510975 -0.0496427
-0.19132945 -0.054872934 0.021349953 0.2538814 -0.091425344 -0.027960354 -0.009806538 -0.20961156
0.12866661 0.063604906 -0.31313023 0.04492571 0.16050452 -0.033764537 -0.07632889 -0.21361569
0.00019771236 -0.14761004 -0.13055916 -0.0039418745 -0.07378749 0.05805089 -0.20945093 -0.14065214
-0.08928657 -0.1596323 -0.091288276 -0.061299726 0.12343576 -0.09911659 0.02513105 0.01907688
0.00011006211 0.28521833 0.26027367 0.13792326 -0.32629573 -0.32025898 -0.05835101 0.0022411705
0.0061863433 0.05349359 0.18498626 -0.057462033 -0.37682214 -0.1371325 -0.18225123 -0.15977928
-0.29118267 -0.12081025 0.18624611 0.08801001 0.032701705 0.26937172 -0.14828399 0.18513396
0.17335033 0.04872088 0.3194006 -0.30936924 0.03849116 -0.05486987 -0.1257205 -0.028101336
-0.04437196 0.24844243 0.11686908 0.059564035 -0.24489313 0.09383516 -0.18065247 0.046794053
-0.015891906 -0.039120227 -0.07935176 0.10950644 -0.109035306 -0.08780056 -0.04484341 -0.13158877
-0.3269105 -0.18583883 0.16696994 0.12567812 -0.41879258 0.0737791 0.17927739 0.033775188
0.031546693 0.16684559 -0.04896721 -0.114592925 -0.117758796 0.11189054 -0.10635003 -0.14333215
0.053608518 -0.07503086 -0.01723528 -0.13188833 0.26962945 0.10294418 -0.06081359 -0.2212515
0.015608178 0.12969418 -0.0589262 -0.025063278 0.2109802 0.0073527405 -0.036003023 0.0785849
-0.043741997 0.09852695 0.09944228 -0.1553676 0.015800418 0.06627333 0.05058142 0.11134879
0.124441944 0.21251842 -0.02413546 -0.029482543 0.010003542 -0.061094303 -0.03900389 -0.13531527
-0.09291319 -0.20171256 0.026019694 -0.09277401 0.30085504 -0.0895777 -0.11175526 -0.105149105
0.30273244 0.05358577 -0.26587057 0.03781641 0.008326102 0.09931765 -0.03510951 -0.030843882
0.111651205 -0.27635413 0.030281615 0.09312275 0.076079026 0.14596537 -0.10424856 0.24901006
-0.10100354 -0.07576226 0.09098923 0.1374494 0.052101374 0.060554214 -0.12335317 -0.017039848
-0.0021159777 -0.14055759 -0.0051779477 -0.17171979 -0.0794586 0.119445436 -0.09558109 -0.014597148
0.083040945 -0.14988981 0.0283301 -0.16830255 -0.16021082 0.19340754 -0.10304924 -0.13358776
0.029575365 -0.09869135 0.10213112 0.21147726 0.04857411 0.0985145 0.16258164 0.042865414
-0.16970217 -0.10440332 -0.15095155 0.16381325 -0.022356404 -0.028927293 -0.05212504 -0.21676862
-0.08120776 -0.08096994 -0.20579411 0.023795076 0.22828777 0.12053437 -0.05144174 0.040830985
-0.025299428 0.072383456 0.04297546 -0.15382847 0.047348417 -0.07161016 0.09999627 0.10917116
-0.12205826 0.15312509 0.046551295 0.09207928 0.18381667 -0.0020343289 0.18438494 -0.07344864
-0.07718791 0.07727196 -0.1146794 -0.19071312 0.12808526 0.05297487 -0.048249338 0.0080890525

bias f4 [9]
00000000: d22b 3d3e a4fb 11bb c163 f63d afd4 cebd
00000010: f5c6 a7bd 7539 613c 2d36 b6bc 12dc 413e
00000020: 699b 1a3e
0.18473747 -0.0022275234 0.12030745 -0.1009916 -0.08192245 0.013746609 -0.02224263 0.18931606
0.15098347
