WEB_APP/media/models/Meta_BiTCN_best_USTC_1.pth (torch, 364906 bytes, 34 tensors)

convs_forward.0.weight f4 [32, 5, 3]
0	0xbca043d0	-0.019563586
1	0xbb8f9ad8	-0.0043824725
2	0x3d0233d8	0.031787723
3	0xbdf3521c	-0.118808955
4	0x3e063dce	0.13109514
5	0xbc9a46a0	-0.018832505
6	0xbd9badf0	-0.07601535
7	0x3e3920f7	0.18078981
8	0x3c6729c0	0.014109075
9	0xbe43d451	-0.19123961
10	0xbe8aca28	-0.27107358
11	0xbe4f416f	-0.20239805
12	0xbd0087b4	-0.031379417
13	0x3dcd9003	0.10037234
14	0x3e072a3c	0.13199705
15	0xbd604108	-0.05474952
16	0x3da9beca	0.08288343
17	0xbd06bf50	-0.032897294
18	0xbd586360	-0.052829146
19	0x3d0fbc71	0.03509182
20	0x3deef474	0.116677195
21	0xbde56bae	-0.11202179
22	0xbdced2f0	-0.10098827
23	0xbe0e4cd8	-0.13896501
24	0xbe72e130	-0.23718715
25	0x3d04f526	0.032460354
26	0x3e297b70	0.16550994
27	0x3e68ad30	0.22722316
28	0x3dbc2d19	0.09188289
29	0xbdc93532	-0.09824599
30	0x3d5b4c20	0.053539395
31	0x3e66e211	0.22547175
32	0xbe2eac01	-0.17057802
33	0xbc1404e0	-0.009034365
34	0xbefebf56	-0.49755353
35	0xbde8ff38	-0.11376804
36	0xbe3ff6d3	-0.187465
37	0xbe82c1a5	-0.25538364
38	0xbcb5b658	-0.022181675
39	0xbe2261ee	-0.1585767
40	0xbee74a5b	-0.45173916
41	0x3e6b403e	0.22973725
42	0x3e243bb4	0.160384
43	0xbe272eab	-0.16326396
44	0x3e6141cc	0.21997756
45	0x3e4425f4	0.19155103
46	0x3df419ad	0.1191896
47	0xbdf43ccc	-0.119256586
48	0x3dafd0ac	0.08584723
49	0xbc90a49a	-0.017656613
50	0x3dd56e5c	0.1042144
51	0xbd14851c	-0.036259755
52	0xbe4b3a2e	-0.19846413
53	0xbe01d39c	-0.12678379
54	0x3e2db860	0.16964865
55	0x3e18eee9	0.14934887
56	0xbdec36e4	-0.11533907
57	0xbe661e50	-0.22472501
58	0x3dce8987	0.10084825
59	0xbdca7550	-0.09885657
60	0xbdc7c264	-0.09753874
61	0x3d82917f	0.063754074
62	0xbdd41138	-0.10354847
63	0x3e73e306	0.23817071
64	0x3d3318d6	0.043724857
65	0xbc8de460	-0.017320812
66	0x3d3be958	0.04587683
67	0x3dbd8642	0.09254123
68	0x3e4b9e28	0.1988455
69	0xbe05589b	-0.13022082
70	0x3de7f547	0.1132608
71	0x3e1721fa	0.14759055
72	0x3e6234c0	0.22090435
73	0xbe6ab9ac	-0.2292239
74	0x3e7be43a	0.2459878
75	0xbe479562	-0.19490579
76	0xbbbd887f	-0.005784094
77	0x3e15f00c	0.14642352
78	0x3d9b8910	0.07594502
79	0xbe718e60	-0.23589468
80	0x3e60ecf6	0.21965393
81	0xbe51ac1e	-0.20475814
82	0x3e1c4d9c	0.1526398
83	0xbdced6e2	-0.100995794
84	0xbe187b2a	-0.14890733
85	0x3d024db6	0.031812392
86	0xbd3aee4c	-0.045637414
87	0xbe0d25e4	-0.13783985
88	0xbce5360d	-0.027979875
89	0xbe526606	-0.20546731
90	0xbe02e27c	-0.1278171
91	0xbced669c	-0.028979592
92	0x3c952fd0	0.018211275
93	0x3e1e0d98	0.15434873
94	0x3d7885d5	0.060674507
95	0xbe77c6bc	-0.24196905
96	0x3cb0c650	0.021578938
97	0xbe3bad36	-0.18327793
98	0x3e037b9c	0.12840122
99	0xbe672ba1	-0.22575237
100	0x3df0c0f6	0.117555544
101	0xbe3cc258	-0.18433511
102	0xbe210800	-0.15725708
103	0xbd18f173	-0.03733964
104	0xbdbe5bc4	-0.09294847
105	0xbbc90bc0	-0.006135434
106	0x3d138fc1	0.036025766
107	0xbe422520	-0.18959475
108	0xbdf8798e	-0.1213256
109	0x3e289aa4	0.1646524
110	0xbdb751b2	-0.08951129
111	0x3cf63d40	0.030058503
112	0xbe255f0c	-0.16149539
113	0x3d100410	0.035160124
114	0xbe74832e	-0.23878166
115	0xbd18e089	-0.03732351
116	0x3e7cfb66	0.24705276
117	0x3e771b72	0.24131563
118	0x3e18a5ec	0.14907044
119	0x3d01ea50	0.0317176
120	0x3db717b4	0.08940068
121	0xbe610e49	-0.21978106
122	0xbd94b71e	-0.07261489
123	0x3d8b214c	0.0679346
124	0x3e241302	0.16022876
125	0xbcbda638	-0.023150548
126	0x3e586a00	0.21134186
127	0x3da6d4de	0.0814607
128	0xbdd65a6e	-0.10466467
129	0xbe6d917b	-0.23200028
130	0xbbbefe89	-0.005828683
131	0xbdfc5204	-0.12320331
132	0x3e20285e	0.15640399
133	0x3dd496ff	0.10380363
134	0x3d95e418	0.07318896
135	0xbe1a122e	-0.15045998
136	0xbe1dc600	-0.15407562
137	0xbda6bee0	-0.08141875
138	0x3d63a8a8	0.055580765
139	0x3cfcf021	0.030876221
140	0x3d425208	0.047441512
141	0xbd00fdcc	-0.03149204
142	0x3ca54cd6	0.02017824
143	0x3d1597a0	0.036521554
144	0xbe0d397c	-0.1379146
145	0xbd8e1cf5	-0.06939117
146	0x3daa646c	0.08319935
147	0x3e7845b6	0.24245343
148	0x3dbd0c32	0.09230842
149	0x3ce4b970	0.027920455
150	0x3df1c768	0.11805612
151	0xbcf75f01	-0.030196669
152	0xbddfa9fa	-0.10921092
153	0x3b9f9e00	0.00487113
154	0x3cf57842	0.02996457
155	0x3e4ab0dc	0.19794029
156	0xbdd09bb6	-0.101859495
157	0xbbe24b2c	-0.006905934
158	0x3e784356	0.24244437
159	0xbe3c6964	-0.18399578
160	0x3e405b62	0.1878486
161	0xbb65af00	-0.0035046935
162	0xbd8c8438	-0.06861156
163	0xbdc31851	-0.09526122
164	0xbca8f388	-0.020623937
165	0x3e2e4126	0.1701704
166	0xbe55c04b	-0.20874135
167	0xbe29f034	-0.16595536
168	0xbe6b92bb	-0.23005192
169	0x3e7c3e5f	0.24633168
170	0xbdf862b0	-0.12128198
171	0x3e49050c	0.19630831
172	0x3d5d32d6	0.05400356
173	0xbe0b040e	-0.13575765
174	0x3ba45140	0.0050145686
175	0x3def25ba	0.11677118
176	0xbba5ce40	-0.0050599873
177	0xbe471a5e	-0.19443652
178	0xbe624dd3	-0.221
179	0xbe334a2d	-0.17508765
180	0x3cc66570	0.024218291
181	0x3d3e371f	0.046439286
182	0x3e1f4aa6	0.1555582
183	0xbe277334	-0.1635254
184	0x3d06e36c	0.03293173
185	0x3e2d84e0	0.16945219
186	0xbe1d516d	-0.15363093
187	0xbdda641f	-0.10663628
188	0x3e029e92	0.12755802
189	0xbe066f54	-0.13128406
190	0x3d2567b2	0.040382095
191	0xbdcef3c8	-0.10105091
192	0xbd8820ee	-0.06646906
193	0x3debe9be	0.11519192
194	0x3d689f28	0.05679241
195	0x3e0dfc5c	0.13865799
196	0xbcbb7546	-0.022883069
197	0x3e202906	0.15640649
198	0x3dc69dac	0.09698042
199	0x3d8daa2a	0.06917222
200	0x3e10f28c	0.14155024
201	0x3d6c9288	0.05775693
202	0xbe67a735	-0.22622378
203	0xbe5763f2	-0.2103422
204	0xbdd05418	-0.101722896
205	0xbd5361d6	-0.051606975
206	0x3de0781c	0.10960409
207	0x3e0170f0	0.12640738
208	0x3e002ff7	0.12518297
209	0x3d7bb8d0	0.061455548
210	0x3df70440	0.120613575
211	0x3e0529a4	0.13004166
212	0xbbfefe80	-0.0077818036
213	0xbce8a760	-0.028400123
214	0xbe598829	-0.21243347
215	0x3d810e1c	0.06301519
216	0x3e3bd4dc	0.18342918
217	0x3b097a2a	0.0020977356
218	0xbd1e675c	-0.03867279
219	0x3dd058c8	0.10173184
220	0x3e3fa63a	0.18715754
221	0xbe0f40b2	-0.13989523
222	0xbdfed324	-0.12442616
223	0xbba5a55c	-0.0050551128
224	0x3d0f25f8	0.03494832
225	0xbb7f7300	-0.0038978457
226	0xbdb36f5d	-0.08761475
227	0xbe58de02	-0.2117844
228	0xbe31e8e6	-0.17374
229	0xbddb9bfb	-0.1072311
230	0xbe7aca34	-0.24491197
231	0x3e54dd98	0.20787656
232	0x3deaf83f	0.114731304
233	0xbe64cc94	-0.22343665
234	0x3e296f1e	0.16546294
235	0x3e0cd183	0.13751797
236	0xbe52e2dc	-0.20594352
237	0xbdbf8eba	-0.09353395
238	0x3dc53966	0.096300885
239	0xbd43dae8	-0.047816187
240	0x3da539fc	0.080677
241	0x3cadf115	0.021233121
242	0x3d835698	0.06413001
243	0x3de952ac	0.113927215
244	0x3e074619	0.13210334
245	0x3dd7fa3c	0.10545775
246	0xbd298e04	-0.041395202
247	0x3bb58f65	0.0055407756
248	0x3e2231e6	0.15839347
249	0x3c5239a0	0.012831122
250	0x3d0141a3	0.031556737
251	0x3cca8310	0.024720699
252	0x3c9c7e40	0.01910317
253	0xbd899437	-0.06717723
254	0x3e17fc64	0.14842373
255	0xbd8dee22	-0.06930186

convs_forward.0.bias f4 [32]
0	0xbef596ce	-0.47966617
1	0xbe94fc7d	-0.29098883
2	0x3ef16be1	0.47152618
3	0xbee15324	-0.44008744
4	0xbe4b02fb	-0.19825356
5	0x3ef94149	0.4868262
6	0x3f05224a	0.52005446
7	0xbefaf165	-0.49012294
8	0xbee2df53	-0.44311008
9	0x3ee7478d	0.45171776
10	0xbf2a1c3e	-0.66449344
11	0xbca56a47	-0.020192279
12	0xbed67524	-0.41886246
13	0x3e88a935	0.26691595
14	0xbf33a22a	-0.7016932
15	0xbf109da6	-0.5649055
16	0xbebed962	-0.37275225
17	0x3e6d5519	0.23176993
18	0xbea90bc4	-0.3301679
19	0xbe820d6a	-0.2540086
20	0x3f070864	0.5274718
21	0xbefa0956	-0.48835248
22	0x3edf2c11	0.43588307
23	0x3f02a2a9	0.5102945
24	0x3ecc69f8	0.39924598
25	0xbf1f7d8a	-0.6230093
26	0x3f0aa30c	0.5415504
27	0xbef1c58d	-0.47221032
28	0xbf03b79e	-0.5145205
29	0x3f2d1d65	0.6762298
30	0x3e8f7220	0.28016758
31	0xbea05959	-0.31318167

convs_forward.1.weight f4 [32, 64, 3]
0	0x3d938e24	0.072048455
1	0x39e45d0f	0.00043556883
2	0xbc636f78	-0.013881557
3	0x3ba829e0	0.005131945
4	0xbd438765	-0.047736544
5	0xbd76a515	-0.06021603
6	0xbd29d584	-0.04146339
7	0xbda1f43a	-0.07907911
8	0x3d381520	0.04494202
9	0x3b283760	0.0025667772
10	0xbc857c95	-0.016294757
11	0x39f42b00	0.00046571344
12	0x3c8a4da8	0.016882733
13	0x3cad64e7	0.021166278
14	0x3d6bca88	0.057566196
15	0xbc048a70	-0.008089647
16	0x3e876120	0.26441288
17	0xbd5f6602	-0.05454064
18	0x3d68be9c	0.056822404
19	0x3dc16784	0.09443572
20	0xbcb042b4	-0.021516182
21	0x3d5d8e88	0.054091007
22	0xbd821c1e	-0.06353019
23	0x3bc02750	0.0058640614
24	0xbd62a4de	-0.05533301
25	0xbdb5a5b1	-0.08869494
26	0x3d00967c	0.031393513
27	0xbd1dfbf4	-0.03857036
28	0x3d4dd44e	0.050251298
29	0x3d02e0fa	0.031952836
30	0xbd58d544	-0.05293776
31	0xbe96ce6c	-0.29454362
32	0xbc1b90e8	-0.009494998
33	0x3c4fe7c0	0.012689531
34	0xbd90097b	-0.07033058
35	0xbd434efc	-0.047682747
36	0xbc4d3428	-0.012524642
37	0xbd0ad68e	-0.03389602
38	0x3d36f5d0	0.04466802
39	0x3d473b48	0.04864052
40	0x3c37d0e1	0.011219234
41	0xbc27b00c	-0.010234844
42	0x3d91f1c2	0.0712619
43	0x3cc8cd2f	0.024511902
44	0x3d21f924	0.03954424
45	0x3b10aa60	0.0022074208
46	0x3d0771b4	0.03306742
47	0x3d1ce12e	0.038300686
48	0xbd5d2179	-0.053987
49	0xbd90649a	-0.07050438
50	0xbd7cee72	-0.061750837
51	0x3d4862a8	0.04892221
52	0xbd5d9631	-0.05409831
53	0xbca214c2	-0.019785289
54	0xbd3e9d03	-0.046536457
55	0x3b11c66b	0.002224351
56	0xbd8d9240	-0.069126606
57	0xbd3869be	-0.04502272
58	0x3daaeb7b	0.083456956
59	0xbd03fd68	-0.03222409
60	0xbd91e851	-0.07124389
61	0x3ea3cc0d	0.31991616
62	0x3c4053c0	0.011738718
63	0xbcbf48d4	-0.023350157
64	0xbc96cc03	-0.018407827
65	0x3d0b7e1e	0.03405582
66	0x3b5e1640	0.0033887774
67	0xbca8057f	-0.020510433
68	0x3d323312	0.043505736
69	0xbd0e1dd8	-0.03469643
70	0x3bc3e8d0	0.005978681
71	0x3c103548	0.008801766
72	0x3d242e78	0.04008338
73	0x3d85e106	0.065370604
74	0x3c6b6530	0.014367387
75	0xbd8c3757	-0.06846493
76	0xbde8316c	-0.113375515
77	0xbd5f60b8	-0.054535598
78	0xbd727f8d	-0.059203673
79	0x3e3aa8df	0.18228482
80	0xbd68a6c0	-0.05679965
81	0x3d5e1af4	0.054224923
82	0x3d2ddf46	0.04244926
83	0x3c74f3c8	0.0149507
84	0x3cdecf88	0.027198568
85	0xbd94a0c4	-0.07257226
86	0x3d7d9990	0.061914027
87	0x3d0859be	0.03328871
88	0xbc9190f3	-0.017769312
89	0x3c9abbc8	0.01888837
90	0x3cfd16b4	0.030894615
91	0xbd6fa158	-0.05850348
92	0xbd66f2e8	-0.056383997
93	0x3d508a1e	0.05091297
94	0xbc4621f5	-0.012093057
95	0xbbeb4e90	-0.0071809962
96	0xbd6862e4	-0.056734934
97	0x3cbcc169	0.023041444
98	0x3c54a0c0	0.012977779
99	0xbd8d9b5f	-0.069144
100	0x3e312148	0.17297852
101	0x3d6ec970	0.058297575
102	0xbcdc5fe8	-0.0269012
103	0x3c2bfb94	0.010496993
104	0xbb068ae0	-0.0020529553
105	0x3cc9dee0	0.024642408
106	0x3e1e07a3	0.154326
107	0xbc1b9b00	-0.009497404
108	0xbcfb8a26	-0.030705523
109	0xbdc2ef68	-0.09518319
110	0xbd84afba	-0.0647883
111	0x3d825a4e	0.063648805
112	0xbd5689b8	-0.052377433
113	0xbcc2a318	-0.02375941
114	0xbd208f71	-0.039199296
115	0xbeb62e40	-0.3558216
116	0x3d75e3a8	0.060031563
117	0xbc548bfc	-0.012972828
118	0xbd05fb8a	-0.03271059
119	0xbb768680	-0.003761679
120	0xbd867fd8	-0.06567353
121	0xbd273b6e	-0.04082816
122	0x3bb976c0	0.005659908
123	0xbd14a7b5	-0.03629275
124	0xbcf02118	-0.029312655
125	0xbd3825c4	-0.04495789
126	0xbc0f2450	-0.008736685
127	0x3cd243c8	0.025667086
128	0x3d1ff9f4	0.039056733
129	0xbd79cacf	-0.06098443
130	0xba95f7db	-0.0011441665
131	0xbcfffb66	-0.031247806
132	0x3d1f8710	0.038947165
133	0xbd43d67f	-0.04781198
134	0x3cf85e78	0.030318484
135	0xbcca397c	-0.024685614
136	0xbd5902d7	-0.052981224
137	0x3c964c20	0.018346846
138	0x3d1ec898	0.03876552
139	0xbd9a9923	-0.0754874
140	0xbd84f8f6	-0.06492798
141	0x3d29880a	0.041389503
142	0x3d5e9a54	0.054346398
143	0xbd25a660	-0.04044187
144	0x3a9946c0	0.0011694059
145	0xbb9aa3f4	-0.0047192518
146	0xbd59c8e6	-0.053170107
147	0x3c09b3a8	0.00840465
148	0xbdc6ae29	-0.09701187
149	0xba890640	-0.0010454133
150	0xbd86e8d4	-0.06587377
151	0xbe1f9d5f	-0.15587376
152	0xbbbeb750	-0.0058201924
153	0xbcb7d404	-0.022439964
154	0x3ddf5b55	0.10906092
155	0x3d22382e	0.03960436
156	0xbc0622f0	-0.008187041
157	0xbc98dbac	-0.018659435
158	0x3d669e78	0.05630347
159	0xbd7c4034	-0.061584666
160	0x3c02225c	0.007942762
161	0x3c13f628	0.009030856
162	0x3d4af4d8	0.049549907
163	0x3ec6e984	0.38850033
164	0x3c224780	0.009904742
165	0x3d89df72	0.06732072
166	0xbcd0ac05	-0.02547265
167	0x3d88bf78	0.06677145
168	0x3cd16ea8	0.02556546
169	0xbc3dcdda	-0.011584723
170	0x3d2c023a	0.04199431
171	0x3c444bb0	0.011980936
172	0x3968f38c	0.00022215972
173	0xbd0c6291	-0.034273688
174	0xbcb8feac	-0.022582375
175	0x3d87c002	0.066284195
176	0x3c1e5c90	0.009665623
177	0x3d92ee98	0.071744144
178	0xbce58add	-0.028020317
179	0x3d04a882	0.032387264
180	0xbc8fe660	-0.017565906
181	0x3c93b348	0.018029824
182	0x3cd41e70	0.02589342
183	0x3d63c92c	0.055611774
184	0xbcc7fa69	-0.024411397
185	0x3c11b528	0.008893289
186	0xbbde0640	-0.0067756474
187	0x3d16985d	0.0367664
188	0xbb3e0f00	-0.002900064
189	0xbc318914	-0.010835905
190	0x3da0f60d	0.078594305
191	0xbd92704d	-0.07150326
192	0xbc7ccd38	-0.015429787
193	0x38999a68	7.324369e-05
194	0x3c93fc38	0.018064603
195	0x3d8bf00c	0.06832895
196	0x3d4ec3e8	0.0504798
197	0xbbba36e0	-0.005682811
198	0xba9bdc00	-0.0011891127
199	0xbd9cdd6d	-0.07659421
200	0x3d8cbe4c	0.06872234
201	0xbd7c99c6	-0.061670087
202	0xbc9b5e39	-0.018965827
203	0x3c72f200	0.014828205
204	0x3d6f2954	0.058389023
205	0xbe0d2b72	-0.13786104
206	0xbb5dc6a0	-0.0033840314
207	0xbd802909	-0.06257827
208	0xbd6a47e3	-0.057197463
209	0xbd0b0f07	-0.033949878
210	0xbce19d82	-0.027540926
211	0x3d9e007a	0.07714935
212	0x3d6daa18	0.058023542
213	0xbd1b57d5	-0.03792556
214	0x3d6dc7a2	0.058051713
215	0x3ac85040	0.0015282705
216	0x3c87e660	0.016589344
217	0xbe0dde3c	-0.13854307
218	0xbd8ecf2d	-0.069731094
219	0xbc99e4da	-0.018785883
220	0x3e4094f8	0.18806827
221	0xbd092822	-0.03348554
222	0xbceebc3e	-0.029142495
223	0xbd98b953	-0.07457223
224	0xbd8c74ac	-0.06858191
225	0x3d829182	0.0637541
226	0xbc744cc7	-0.014910883
227	0xbd545e6a	-0.051847853
228	0xbcb85aaa	-0.02250417
229	0xbd851b6b	-0.0649937
230	0xbd01098c	-0.031503245
231	0xbd49c867	-0.049263384
232	0x3ea2d09c	0.3179978
233	0xbd1ae10b	-0.037812274
234	0xbd741518	-0.05959043
235	0xbe1d5fe6	-0.15368614
236	0xbca1e552	-0.019762669
237	0x3d69672c	0.056983158
238	0xbe85076e	-0.2598223
239	0x3d16676a	0.036719717
240	0x3d0c5040	0.03425622
241	0xbe07229a	-0.13196793
242	0xbd2afd0e	-0.041745238
243	0xbd805fee	-0.06268297
244	0x3ddc40e2	0.10754563
245	0xbd7b01c2	-0.061280973
246	0x3d4825ce	0.04886418
247	0xbe656515	-0.22401841
248	0xbd18c341	-0.037295584
249	0x3d6828c0	0.056679487
250	0xbe461bb5	-0.19346507
251	0x3d5a0d18	0.053235143
252	0x3b888ce0	0.0041671842
253	0x3e05a05d	0.13049455
254	0x3cd37004	0.02581025
255	0xbd7b1502	-0.06129933

convs_forward.1.bias f4 [32]
0	0x3e3a3f48	0.18188202
1	0x3d9ec925	0.07753209
2	0xbd7ad16b	-0.061234873
3	0x3e7d4d86	0.24736604
4	0xbe1ec4df	-0.15504788
5	0xbe83b6bd	-0.25725356
6	0xbe0dfc6f	-0.13865827
7	0xbe83cb7b	-0.2574118
8	0xbb0c3e61	-0.0021399485
9	0x3cd053a2	0.025430504
10	0x3d6adbec	0.05733864
11	0xbe239ac9	-0.15977015
12	0xbec3a9a4	-0.38215363
13	0xbe0d0675	-0.13771994
14	0xbeb1d8bd	-0.3473567
15	0xbe54b808	-0.20773327
16	0x3e1634e0	0.14668608
17	0x3e64b96b	0.22336356
18	0xbab264b9	-0.001361034
19	0x3e99b6e8	0.3002236
20	0xbe551f28	-0.20812666
21	0xbe083ea4	-0.13305146
22	0x3da625c5	0.08112673
23	0x3e9bf2ba	0.30458623
24	0xbe38c7b6	-0.18044934
25	0x3e8b08d0	0.2715516
26	0xbc053d85	-0.008132343
27	0xbe159896	-0.14608988
28	0xbe844937	-0.25837108
29	0x3e871084	0.26379788
30	0x3e42b801	0.19015504
31	0x3eac2782	0.33623892

convs_forward.2.weight f4 [32, 64, 3]
0	0x3d7f0f64	0.062270537
1	0xbe1cae93	-0.1530097
2	0x3d4c7f6c	0.049926206
3	0xbd3de9fd	-0.046365727
4	0xbdede59e	-0.11616062
5	0x3d817900	0.06321907
6	0xbd46d5ae	-0.048543625
7	0x3ecf8b08	0.4053576
8	0x3d55aebc	0.052168593
9	0xbd101361	-0.03517473
10	0xbe0297a2	-0.12753156
11	0x3acc9a00	0.001560986
12	0x3c449300	0.011997938
13	0xbc8a71c2	-0.016899947
14	0x3bc47070	0.005994849
15	0x3c866ce8	0.016409352
16	0x3cc0d96a	0.023541171
17	0xbd626259	-0.055269573
18	0x3c862840	0.016376615
19	0x3f50c59f	0.81551546
20	0x3d38fe76	0.045164548
21	0xbcfb1c90	-0.030653268
22	0x3cc955c8	0.024577036
23	0x3d17305a	0.036911346
24	0xbd0a4bf5	-0.033763845
25	0xbe761321	-0.24030735
26	0x3d3914e2	0.04518593
27	0x3d404e48	0.046949655
28	0x3e0372d4	0.12836772
29	0x3b975980	0.0046188235
30	0x3d8ab90c	0.06773576
31	0x3c8e0d42	0.017340306
32	0x3cea1c64	0.02857799
33	0xbc803502	-0.015650276
34	0x3f59e55a	0.8511559
35	0xbd6981bc	-0.05700849
36	0x3d9027be	0.0703883
37	0x3dee5a58	0.116383255
38	0x3d85586a	0.06511004
39	0xbb403600	-0.0029329062
40	0xbc39d72e	-0.011342807
41	0xbd0383c4	-0.032108083
42	0xbba1a400	-0.0049328804
43	0x3b719d63	0.0036867491
44	0x3d4e4a1c	0.050363645
45	0xbc87f0cc	-0.016594313
46	0x3d46e147	0.048554685
47	0xbc8c577a	-0.017131556
48	0x3ca0a6bc	0.019610755
49	0x3bfa00ba	0.007629481
50	0xbc9ea50e	-0.019365814
51	0xbd758430	-0.059940517
52	0xbdd7a463	-0.10529401
53	0xbd7c44ce	-0.061589055
54	0x3d6ff6dc	0.058585033
55	0x3e7c5182	0.24640468
56	0x3d407d04	0.046994224
57	0x3cd1c4fc	0.025606625
58	0xbe2e1277	-0.16999231
59	0x3d639bb8	0.055568427
60	0xbd53dfc8	-0.051727086
61	0xbc940ff3	-0.018074011
62	0x3c8c8080	0.017151117
63	0xbd2fadcf	-0.042890366
64	0xbdc43a4b	-0.09581431
65	0xbc2b036c	-0.010437828
66	0x3d871290	0.065953374
67	0xbceb6d39	-0.028738605
68	0xba816980	-0.000987336
69	0x3d27e8d4	0.040993527
70	0xbd746ac8	-0.059672147
71	0x3d7028fc	0.058632836
72	0xbd80c909	-0.062883444
73	0xbce75fd5	-0.028243938
74	0xbd88049d	-0.06641505
75	0xbd598b6a	-0.05311147
76	0xbd854f46	-0.06509261
77	0xbd759f1c	-0.05996619
78	0xbd44bf4e	-0.048034005
79	0x3eff4771	0.49859193
80	0x3c3998d8	0.011327945
81	0xbd7c3880	-0.06157732
82	0xbd45ef31	-0.048323814
83	0x3d1d820a	0.038454093
84	0xbc9f7cc8	-0.01946868
85	0x3d183bdf	0.037166473
86	0x3d83d55a	0.06437178
87	0x3d899de2	0.06719567
88	0xbdae8aa8	-0.0852254
89	0xbd326159	-0.04354987
90	0xbd813069	-0.06308062
91	0xbd271b65	-0.04079761
92	0x3d7c0cb0	0.061535537
93	0xbc400064	-0.011718843
94	0xbdc06c50	-0.09395659
95	0xbd019654	-0.031637505
96	0xbcf6b2c6	-0.030114543
97	0xbc0674d2	-0.008206563
98	0xbc912c7c	-0.017721407
99	0x3d1820e4	0.037140742
100	0xbd8ec0d5	-0.069703735
101	0xbd442089	-0.04788259
102	0xbd016aaf	-0.031595882
103	0x3d984b09	0.07436187
104	0x3d3c34f0	0.045948923
105	0x3c180330	0.009278104
106	0x3ec7dbe5	0.39034954
107	0xbc660f5c	-0.014041748
108	0x3d862332	0.06549682
109	0xbd32089c	-0.04346524
110	0x3cd46d08	0.025930896
111	0xbd8936a1	-0.06699873
112	0xbbe652e7	-0.0070289257
113	0x3d7e0c50	0.06202346
114	0xbd90c2e8	-0.070684254
115	0xbce0528d	-0.027383113
116	0x3d0ee422	0.034885533
117	0xbcfd7b02	-0.030942444
118	0x3d7d36f4	0.061819986
119	0x3d296bc2	0.04136253
120	0xbd319da2	-0.04336322
121	0x3e16dac5	0.14731891
122	0xbb7e8360	-0.003883563
123	0xbd8e49ab	-0.06947645
124	0xbd38f12b	-0.04515187
125	0x3d220ea0	0.03956473
126	0xbcc504a2	-0.02405006
127	0x3e2da105	0.16955955
128	0xbcd3d9de	-0.025860723
129	0xbd50a9cf	-0.050943192
130	0xbc6862a7	-0.014183677
131	0x3c861818	0.01636891
132	0xbbf6d4a0	-0.007532671
133	0xbdfdd47c	-0.12394044
134	0x3ce493cc	0.027902506
135	0xbd71a41d	-0.0589944
136	0x3caea01c	0.02131658
137	0x3d043dba	0.03228543
138	0xbc10c428	-0.00883583
139	0xbc325b19	-0.010885977
140	0x3d929d58	0.07158917
141	0xbd6d6a82	-0.057962902
142	0xbd2206b4	-0.039557174
143	0xbcfe70da	-0.031059671
144	0x3ca33d18	0.019926593
145	0x3c78cb2c	0.015185159
146	0xbcd9fec0	-0.026610732
147	0x3ca3e798	0.020007893
148	0xbe08d90c	-0.13364047
149	0xbc343c48	-0.0110007
150	0xbd23ba8a	-0.03997282
151	0xbd5860e6	-0.052826785
152	0x3ce055c4	0.027384646
153	0xbd3c8557	-0.0460256
154	0x3e7d11bc	0.24713796
155	0xbd1d27b2	-0.038367935
156	0x3d6da524	0.05801882
157	0xbe52b8a9	-0.20578255
158	0x3cd2dae4	0.02573914
159	0x3d604fb0	0.054763496
160	0x3e014caa	0.12626901
161	0xb9cff300	-0.00039663166
162	0xbc83547e	-0.0160315
163	0x3cccbc36	0.02499209
164	0x3d25799e	0.040399186
165	0xbc26ac20	-0.010172874
166	0xbc27f054	-0.01025017
167	0x3d3a5ea4	0.045500413
168	0x3d10e9da	0.03537927
169	0xbdc43f0f	-0.0958234
170	0x3cef8944	0.029240258
171	0x3d157384	0.036487117
172	0xbdc91593	-0.09818568
173	0xba9c09c0	-0.0011904761
174	0xbd5e17e7	-0.054222014
175	0x3dca8292	0.098881856
176	0xbd840064	-0.06445387
177	0xbcb732b8	-0.022363052
178	0x3da73fec	0.08166489
179	0x3d27bda0	0.040952325
180	0xbd28dc5e	-0.041225784
181	0xbd7845e0	-0.060613513
182	0xbcaaada2	-0.020834748
183	0x3afdd640	0.001936622
184	0xbe685044	-0.22686869
185	0xbd2e2a00	-0.042520523
186	0xbd76ec04	-0.060283676
187	0xbdbf5424	-0.093422204
188	0xbc287ef4	-0.010284174
189	0x3ca1ff94	0.01977519
190	0x3daedc6c	0.08538136
191	0xbc0ba658	-0.008523546
192	0xbc2e4350	-0.010636166
193	0xbcc6fd73	-0.024290776
194	0x3cb82854	0.022480167
195	0x3d2e373e	0.04253315
196	0xbddfc0e1	-0.109254606
197	0x3d7951b4	0.060868934
198	0xbcf8928a	-0.030343313
199	0xbdf3d549	-0.11905915
200	0xbd44175a	-0.047873832
201	0xbd5f3650	-0.054495156
202	0x3d630ffa	0.05543516
203	0x3d486a0c	0.04892926
204	0xbd85e496	-0.0653774
205	0x3cb0159d	0.021494681
206	0x3bfad8c0	0.007655233
207	0x3bfec080	0.0077744126
208	0xbd93ffa6	-0.072264954
209	0x3c70e060	0.014701933
210	0x3d52e6ba	0.05148957
211	0xbde30020	-0.11084008
212	0x3d72857c	0.059209332
213	0xbc1f0b48	-0.0097072795
214	0xbd2bd945	-0.04195525
215	0x3d2b19c0	0.041772604
216	0x3b910210	0.0044252947
217	0x3c99854d	0.01874032
218	0xbd527d7b	-0.0513892
219	0xbd49bdb0	-0.049253166
220	0xbd69a5cb	-0.057042878
221	0x3cac23b8	0.021013126
222	0x3c420ca8	0.011843838
223	0xbda8d447	-0.08243614
224	0x3ca9e048	0.020736828
225	0xbd65e9a8	-0.056131035
226	0xbe091b32	-0.1338928
227	0x3d5f4f84	0.05451919
228	0xbc783aec	-0.015150767
229	0xbe217e06	-0.1577073
230	0x3d6f30dc	0.058396205
231	0x3d88d340	0.06680918
232	0x3c245ddc	0.010032143
233	0x3d8591a4	0.06521919
234	0x3afde5c0	0.0019370839
235	0xbdec4121	-0.1153586
236	0x3cb27724	0.021785326
237	0x3d5ab2ec	0.05339329
238	0xbd4b4741	-0.0496285
239	0xbd1c24dd	-0.038121093
240	0xbce6ca58	-0.028172657
241	0xbd49e7c5	-0.0492933
242	0x3c488488	0.012238629
243	0xbd24b4e2	-0.040211566
244	0x3dbcef2b	0.09225305
245	0x3cae57d4	0.021282114
246	0xbcefce78	-0.029273257
247	0xbc2d1b80	-0.010565639
248	0xbd36a1b2	-0.0445878
249	0xbbd659b0	-0.0065414533
250	0x3d3f667c	0.046728596
251	0x3d1a2b46	0.037638925
252	0x3d8cafb8	0.06869453
253	0xbd0021bf	-0.031282183
254	0xbd3538ea	-0.04424373
255	0xbd2cbc02	-0.042171486

convs_forward.2.bias f4 [32]
0	0xbe9cc3e2	-0.30618197
1	0x3e6b18a6	0.22958621
2	0xbcbe598c	-0.023236059
3	0xbe1565ce	-0.14589617
4	0xbe81f712	-0.25383812
5	0xbe05db7a	-0.13072005
6	0x3c1b1cd6	0.009467324
7	0xbe445260	-0.19172049
8	0xbe3688db	-0.17825644
9	0xbe04a83b	-0.129548
10	0x3e5220e5	0.20520361
11	0xbb7053a3	-0.0036670945
12	0x3df84306	0.12122159
13	0xbc340dad	-0.010989589
14	0xbe3608f5	-0.17776854
15	0x3c0d28c5	0.008615677
16	0xbe45021a	-0.19239083
17	0x3e777fcb	0.24169843
18	0xbc55c762	-0.013048025
19	0xbe107835	-0.14108355
20	0xbe9faaac	-0.311849
21	0xbc7e4a78	-0.015520684
22	0xbd09fa14	-0.03368576
23	0xbdc943a9	-0.09827358
24	0x3e80cf63	0.25158224
25	0xbdcc1538	-0.09964985
26	0xbc668bec	-0.014071446
27	0x3e6e3009	0.23260511
28	0xbd836b0b	-0.06416901
29	0x3e02717f	0.12738608
30	0xbe1b1568	-0.15144885
31	0xbde0ced8	-0.10976952

convs_forward.3.weight f4 [32, 64, 3]
0	0xbd8f2fe6	-0.06991558
1	0xbd903a28	-0.070423424
2	0x3d8a04e2	0.067392126
3	0x3d5833ae	0.05278366
4	0xbc46098e	-0.012087239
5	0x3d5c9708	0.053854972
6	0x3d1df9c0	0.03856826
7	0x3b092304	0.0020925412
8	0xbd246ce7	-0.04014292
9	0x3d0e1800	0.034690857
10	0x3da1699c	0.078814715
11	0xbd7a46b4	-0.061102584
12	0x3d02fa76	0.03197714
13	0x3c818362	0.015809719
14	0xbd8562e6	-0.06513004
15	0x3d08e030	0.033416927
16	0x3e0f934f	0.14021038
17	0x3d0fea70	0.035135686
18	0xbc780a10	-0.015139118
19	0x3d073bcf	0.033016022
20	0xbcbe43fe	-0.02322578
21	0x3d927c3a	0.071526006
22	0x3c6fdb98	0.014639758
23	0x3d27fb9e	0.041011445
24	0x3d8b41f6	0.067996904
25	0x3cd17e6b	0.025572976
26	0x385f1000	5.3182244e-05
27	0x3d3b275c	0.045691833
28	0xbcbcc37b	-0.023042431
29	0xba204180	-0.0006113276
30	0x3c6dea98	0.014521264
31	0xbce67556	-0.028132122
32	0xb995ca00	-0.00028569996
33	0x3d4d0692	0.050055094
34	0xbcfe8d42	-0.031073216
35	0xbc34f6e0	-0.011045188
36	0xbd2d8c36	-0.042370044
37	0xbda07c56	-0.07836215
38	0xbd361590	-0.044454157
39	0x3d8fe3d8	0.070258796
40	0x3d70593b	0.058678847
41	0xbc39b7b8	-0.011335306
42	0xbc0e4820	-0.008684188
43	0x3e06dbcc	0.13169783
44	0x3b1689e0	0.0022970363
45	0xbd2f91c0	-0.042863607
46	0x3e01352e	0.12617943
47	0xbd0a83fd	-0.03381728
48	0x3d257fae	0.040404968
49	0x3d4f434f	0.0506013
50	0x3d84c3f2	0.06482686
51	0x3c47c7d0	0.012193635
52	0xbd0e9111	-0.034806315
53	0xbcb1cf24	-0.021705218
54	0xbd68e085	-0.056854744
55	0xbd194237	-0.037416663
56	0xbd8325b3	-0.06403675
57	0x3b6fa180	0.0036564767
58	0x3dc0b7b2	0.09410037
59	0xbcb2fe08	-0.021849647
60	0xbd1c77b0	-0.03820008
61	0x3db6e10f	0.08929645
62	0xbc9e47fe	-0.019321438
63	0xbd18ce0b	-0.037305873
64	0xbda52cb8	-0.0806517
65	0x3d23fe4c	0.04003744
66	0xbc54190c	-0.012945425
67	0xbc8572dd	-0.016290123
68	0xbca07126	-0.019585203
69	0x3d32371a	0.04350958
70	0xbd8a0fbd	-0.06741283
71	0x3c19bd60	0.009383529
72	0xbc9d647c	-0.019212954
73	0x3c294666	0.010331726
74	0x3d38679a	0.045020677
75	0xbd686eeb	-0.056746405
76	0x3dddec87	0.1083613
77	0x3cd389ec	0.025822602
78	0xbd3ec57b	-0.04657505
79	0x3caa4421	0.02078444
80	0x3d8f6eea	0.07003577
81	0xbc16a0d0	-0.009193614
82	0xbcfd4d75	-0.030920723
83	0xbd825d8e	-0.063655004
84	0xbcfa55ca	-0.030558486
85	0x3da463ef	0.08026873
86	0xbd7aa73b	-0.06119464
87	0x3d80af02	0.0628338
88	0xbd95b239	-0.07309384
89	0xbb3e8d00	-0.0029075742
90	0xbc036d28	-0.00802163
91	0x3d4ce99d	0.05002748
92	0x3c03e090	0.008049145
93	0xbc0c44d8	-0.0085613355
94	0x3da9c7b0	0.082900405
95	0x3ce2af40	0.027671456
96	0x3d8e1ab6	0.069386885
97	0x3d49fd1c	0.04931365
98	0x3d672b4c	0.056437775
99	0xbd1f825a	-0.038942672
100	0xbb61b4e6	-0.00344401
101	0xbd5bbdfc	-0.05364798
102	0x3d3d1c28	0.04616943
103	0x3dce86b5	0.10084287
104	0x3d142970	0.03617233
105	0x3d07bdda	0.03314004
106	0x3d11af46	0.035567544
107	0x3d0472c2	0.032336004
108	0xbd2677d6	-0.04064163
109	0x3d978443	0.07398274
110	0x3d8a32ca	0.067479685
111	0x3ca67918	0.020321414
112	0x3d31852e	0.0433399
113	0x3d7dd948	0.061974794
114	0xbd1e1501	-0.03859425
115	0x3d880d64	0.06643179
116	0xbcb1ecbc	-0.021719329
117	0x3c3bfc58	0.011473738
118	0xbd938a94	-0.07204166
119	0xbd02ad98	-0.031903833
120	0x3d1c605e	0.03817784
121	0x3bbb00a1	0.005706862
122	0xbd30e8a8	-0.04319063
123	0x3cd9e29c	0.026597314
124	0xba65fe20	-0.00087735243
125	0x3cabdce8	0.02097936
126	0xbd917e98	-0.07104224
127	0x3df0d222	0.1175883
128	0xbd4e0150	-0.05029422
129	0x3d33d7a6	0.04390683
130	0xbc52bd94	-0.012862582
131	0x3cdd13ac	0.02698692
132	0xbb411e40	-0.0029467493
133	0x3ddc4a19	0.107563205
134	0xbca86e12	-0.020560298
135	0x3cc9fc20	0.024656355
136	0x3e165bc2	0.1468344
137	0x3d35679e	0.04428827
138	0x3d907fc8	0.07055622
139	0x3dd404db	0.103524886
140	0x3d851a14	0.06499115
141	0x3d359f86	0.044341587
142	0x3c152304	0.009102587
143	0x39966a00	0.00028689206
144	0xbcfe5d34	-0.031050302
145	0xbd308045	-0.043091077
146	0x3c01add0	0.007914975
147	0xbcd84558	-0.026400253
148	0xbca22692	-0.019793782
149	0x3b6ad5e0	0.0035833046
150	0xbd8cefaa	-0.0688165
151	0x3d3ca78c	0.046058223
152	0x3d3dea44	0.04636599
153	0x3b600a00	0.0034185648
154	0xbd48dc05	-0.049037952
155	0xbaad7400	-0.0013233423
156	0x3cab3ce4	0.020903058
157	0x3b82dac5	0.0039933645
158	0xbd860bb7	-0.06545203
159	0x3cda0b3c	0.026616685
160	0x3c593755	0.013257821
161	0xbd034b60	-0.032054305
162	0x3d03c77e	0.032172672
163	0x3ceb6e36	0.028739076
164	0x3d8e2422	0.069404855
165	0x3d591b14	0.05300434
166	0x3daa8fe9	0.0832823
167	0xbd2faad2	-0.042887516
168	0x3d06b35c	0.032885894
169	0xbcc0c9bd	-0.023533696
170	0x3d0f7f7e	0.035033695
171	0x3d6fc85c	0.058540687
172	0xbccfd113	-0.025368249
173	0xbcf7d31c	-0.030252032
174	0x3d922d42	0.071375385
175	0x3d978e02	0.07400133
176	0xbd540a16	-0.05176743
177	0x3b51e0a0	0.0032024756
178	0x3c6b3f98	0.014358424
179	0xbd900240	-0.07031679
180	0xbcc7bb5e	-0.024381336
181	0x3d8c76a2	0.06858565
182	0xbd09d798	-0.03365287
183	0x3d28057a	0.041020848
184	0x3da7d7c5	0.08195452
185	0x3d2d7eb6	0.04235717
186	0x3d00c754	0.031440094
187	0x3d7e258a	0.06204752
188	0x3d624294	0.055239275
189	0xbd50a66f	-0.050939973
190	0x3de2f36f	0.110815875
191	0x3d77d62c	0.060506985
192	0x3cd4ce2c	0.025977217
193	0x3affbaa6	0.0019510582
194	0xbcc7f2ca	-0.024407763
195	0x3b3ae040	0.002851501
196	0xbd5ef1c3	-0.05442978
197	0x3c84d888	0.016216531
198	0xbb10cca0	-0.0022094622
199	0xbb781a02	-0.0037857299
200	0xbb44bde0	-0.00300204
201	0x3ca6561c	0.020304732
202	0x3d4efe3b	0.05053542
203	0xbd861a82	-0.06548025
204	0x3cbf9fcc	0.023391627
205	0x3c6eb679	0.014569872
206	0xbd397c96	-0.04528483
207	0xbcd2244a	-0.02565207
208	0x3e2e5355	0.17023976
209	0x3cb57850	0.022152096
210	0xbc610698	-0.013734482
211	0xbbc9f002	-0.0061626444
212	0xbd151046	-0.036392473
213	0xbc139f28	-0.009010114
214	0xbd842555	-0.06452433
215	0x3c30f5e8	0.010800816
216	0xbd1de3a9	-0.03854719
217	0xbd89ec12	-0.0673448
218	0x3afda9c0	0.0019352958
219	0xbb9358c0	-0.004496664
220	0xbd3f2bef	-0.046672758
221	0x3d120a78	0.035654515
222	0x3cfe96c0	0.031077743
223	0xbbed13a4	-0.0072350074
224	0xbaeb12c0	-0.0017934665
225	0x3c6c6b78	0.014429919
226	0x3d74c7b4	0.059760764
227	0x3ce0d244	0.027444012
228	0x3d149c64	0.03628196
229	0xbe1ab422	-0.15107778
230	0xbce906e6	-0.028445672
231	0x3ca0e0fc	0.01963853
232	0xbc9d2d7a	-0.019186724
233	0xbd2ab46d	-0.041675974
234	0xbd05e42d	-0.03268831
235	0x3dd055ea	0.10172637
236	0x3c4a11b8	0.012333326
237	0x3d6e85a8	0.058232933
238	0x3d1430a2	0.036179192
239	0xbd8746e9	-0.06605322
240	0xbcd007ba	-0.02539431
241	0xbd4cd24a	-0.050005235
242	0x3c653808	0.01399041
243	0x3d4ad078	0.049515218
244	0x3c784424	0.015152965
245	0x3d5b1464	0.053486243
246	0xba174f80	-0.00057720393
247	0xbd6d5f6a	-0.057952322
248	0xbd2f279c	-0.042762384
249	0x3c1d8cb8	0.0096160695
250	0x3e0f9cfc	0.14024729
251	0xbc450b6c	-0.012026649
252	0xbcdd8bce	-0.027044203
253	0x3ddf6c6b	0.10909351
254	0xbd913ee5	-0.07092074
255	0xbbcbd3e0	-0.006220326

convs_forward.3.bias f4 [32]
0	0xbb7a4d49	-0.0038193038
1	0xbdfaaaf7	-0.1223964
2	0x3e055e06	0.13024148
3	0x3cb5401a	0.022125293
4	0x3c9c3508	0.019068256
5	0xbeb51136	-0.35364693
6	0xbdc87be2	-0.09789254
7	0x3d201180	0.03907919
8	0x3dd34a24	0.103168756
9	0x3d499130	0.049210727
10	0xbe551b46	-0.20811185
11	0x3d0c3284	0.034227863
12	0xbd91eeef	-0.07125651
13	0xbdb32fdd	-0.087493636
14	0xbe471d9c	-0.19444889
15	0x3dbdac6c	0.092614025
16	0xbd689a39	-0.056787703
17	0xbe0bc90c	-0.13650912
18	0xbe784341	-0.24244405
19	0xbe281cfd	-0.16417308
20	0xbd889c8f	-0.06670486
21	0x3d791a76	0.06081625
22	0xbca280a9	-0.01983674
23	0xbdc4d1f0	-0.09610355
24	0xbdf36841	-0.11885119
25	0xbddc5c35	-0.107597746
26	0x3b50ce88	0.0031861383
27	0x3d386283	0.045015823
28	0xbdb22610	-0.08698666
29	0xbcf8d2e8	-0.030374005
30	0xbd9bf555	-0.07615153
31	0xbcffb739	-0.031215297

convs_forward.4.weight f4 [32, 64, 3]
0	0x3c805e50	0.015669972
1	0xbc275808	-0.010213859
2	0x3d1afffe	0.03784179
3	0x3c0e91b0	0.008701727
4	0xbd849377	-0.06473439
5	0x3d44a0ec	0.04800503
6	0xbc15ce40	-0.009143412
7	0x3cb7a4ea	0.022417504
8	0xbd5f3b87	-0.05450013
9	0xbd924252	-0.07141556
10	0x3dd4c54d	0.10389195
11	0xbd17b1be	-0.037034743
12	0xbc1f3cf0	-0.0097191185
13	0x3ca89421	0.020578446
14	0xbb073940	-0.002063349
15	0xbd93068c	-0.07178983
16	0xbd48cc4f	-0.04902297
17	0x3d47f072	0.04881329
18	0x3d5f7734	0.05455704
19	0xbcb0d16f	-0.02158424
20	0xbc8d4444	-0.017244466
21	0x3d49ecb8	0.04929802
22	0xbc944100	-0.0180974
23	0xbc8eef6a	-0.017448146
24	0x3d2c6f4a	0.04209832
25	0x3d794468	0.060856253
26	0x3ce2784c	0.027645253
27	0xbd4a4fb1	-0.049392406
28	0x3d8a5100	0.06753731
29	0xbc0ca4d0	-0.008584216
30	0x3d81dbe2	0.063407674
31	0x3d023d0b	0.031796496
32	0xbd6bf2f8	-0.05760476
33	0xbd602e54	-0.054731682
34	0x3d27c48f	0.040958937
35	0xbd11feae	-0.035643272
36	0xbd4c8046	-0.04992702
37	0xbde446dd	-0.111463286
38	0x3c4b0690	0.012391701
39	0x3ce9c6f4	0.028537251
40	0xbe914059	-0.28369406
41	0x3c853044	0.016258366
42	0xbd3b9dd7	-0.045804825
43	0xbdb6a639	-0.08918423
44	0xbc5838a0	-0.013197094
45	0xbc8928e4	-0.016743131
46	0xbd2747cc	-0.040839955
47	0xbc87e802	-0.016590122
48	0x3d82cbc4	0.063865215
49	0x3d27d768	0.04097691
50	0x3c6c6910	0.014429346
51	0xbd45c228	-0.048280865
52	0x3c1979cb	0.009367417
53	0xbd491f36	-0.04910203
54	0x3cc86f88	0.024467245
55	0xbccdadd3	-0.0251073
56	0xbd0555f1	-0.032552663
57	0x3d2e57b4	0.04256411
58	0xbdbf7751	-0.0934893
59	0x3d23cb22	0.039988644
60	0xbc282458	-0.010262571
61	0x3d7c6f0b	0.061629336
62	0xbd8a4eac	-0.06753287
63	0xbd617867	-0.055046465
64	0x3d2b9a6b	0.04189531
65	0xbd1696fe	-0.03676509
66	0x3d9013ec	0.0703505
67	0x3daabf20	0.083372355
68	0xbd909732	-0.07060088
69	0x3d6ffc0c	0.05858998
70	0xbe372713	-0.17886
71	0xbd54d8b6	-0.051964484
72	0xbc304560	-0.010758728
73	0x3cc70fd6	0.024299543
74	0x3cb0ba68	0.02157326
75	0xbcc940b8	-0.024566993
76	0xbd68b89b	-0.05681668
77	0xbcc989a4	-0.024601765
78	0x3c289440	0.010289252
79	0xbec7da91	-0.3903394
80	0x3bd998e0	0.0066405386
81	0xbd79c7c7	-0.06098154
82	0x3a272d14	0.00063772616
83	0x3c6b8dc0	0.014377058
84	0x3c991cb4	0.018690445
85	0xbcc9ebbb	-0.024648538
86	0x3c46e0a0	0.012138516
87	0x3b543200	0.0032378435
88	0xbe328c7f	-0.17436408
89	0x3cc0db74	0.023542143
90	0xbc50452c	-0.012711804
91	0x3b289f62	0.0025729765
92	0x3d4e5548	0.0503743
93	0x3c258948	0.010103531
94	0x3d352013	0.04422004
95	0x3d26f884	0.040764347
96	0x3d857f0c	0.06518373
97	0xbd633646	-0.05547168
98	0xbd477cf3	-0.048703145
99	0x3cb0dee8	0.021590665
100	0x3de305ce	0.110850915
101	0xbb38c4c0	-0.0028193444
102	0xbba77ed0	-0.005111553
103	0x3d0aa738	0.03385088
104	0x3d6bbe90	0.05755478
105	0xbd2030b1	-0.039108936
106	0x3dd6aa41	0.10481692
107	0x3cd10f0c	0.02551987
108	0xbd742948	-0.05960968
109	0x3c9651ae	0.018349495
110	0x3caedc6c	0.02134534
111	0x3d207354	0.039172485
112	0xbdaefc6e	-0.08544241
113	0x3d2dbbd6	0.042415462
114	0x3d8a6c2c	0.067589134
115	0xbd9addfe	-0.07561873
116	0x3d69a4f8	0.057042092
117	0xbd27deba	-0.040983893
118	0xbde84ba7	-0.113425545
119	0xbd43c8e0	-0.04779899
120	0xbd6c977b	-0.05776165
121	0x3d9e8d20	0.07741761
122	0xbc176048	-0.009239264
123	0x3d1c20ee	0.03811734
124	0x3cfc299e	0.030781563
125	0x3b4a8120	0.0030899718
126	0x3d1e6cb0	0.03867787
127	0xbdaa3d10	-0.08312428
128	0x3d03a012	0.032135077
129	0x3a840b00	0.0010074079
130	0xbc83f4a8	-0.016107872
131	0x3d8d7cdc	0.06908581
132	0xbd423239	-0.047411177
133	0x3ddef49b	0.108864985
134	0xbd656d7e	-0.056012623
135	0xbd871bfc	-0.065971345
136	0x3ccef54d	0.025263453
137	0xbd2d78d6	-0.042351566
138	0x3d1cb4c6	0.038258336
139	0x3e0704f6	0.13185486
140	0xbd5635bd	-0.052297343
141	0x3cc2e5ec	0.023791276
142	0x3c8eee1d	0.017447526
143	0x3d7a5710	0.061118186
144	0xbd325617	-0.043539133
145	0xbc88fab9	-0.016721116
146	0xbd36bb08	-0.04461196
147	0xbd366d36	-0.044537745
148	0x3d0154fe	0.031575195
149	0x3b9fda10	0.00487829
150	0x3d391f8e	0.04519611
151	0xbd4f5a6d	-0.050623346
152	0x3d83305e	0.0640571
153	0x3cf3a1e8	0.029740289
154	0x3d621961	0.055199984
155	0xbd253989	-0.040338073
156	0xbd0fde4f	-0.03512412
157	0x3cc37c7d	0.023863072
158	0xbd135106	-0.03596594
159	0xbd0b19c1	-0.033960108
160	0xbeaaf3d9	-0.33389166
161	0xbcb02df4	-0.021506287
162	0x3d15c978	0.03656909
163	0x3d20e71a	0.039282896
164	0x3d10fc30	0.035396755
165	0xbce6f07c	-0.028190844
166	0xbd34da06	-0.044153236
167	0x3d8ed93e	0.069750294
168	0xbd549678	-0.05190131
169	0x3c9036d9	0.017604278
170	0x3d4485cc	0.04797916
171	0x3c4a0b70	0.0123318285
172	0x3c8080e2	0.015686456
173	0xbcc5e8e8	-0.02415891
174	0x3d8d82b2	0.06909694
175	0xbc0c959e	-0.008580593
176	0xbd8f05bc	-0.069835156
177	0x3caba444	0.020952351
178	0x3d25ca7d	0.04047631
179	0x3d36b654	0.044607475
180	0xbd8b16ae	-0.06791435
181	0xbcbaa575	-0.022783974
182	0xbaf61940	-0.0018775836
183	0xbc97c99a	-0.018528748
184	0x3d08c984	0.033395305
185	0xbc90a092	-0.01765469
186	0xbd89e6d6	-0.067334816
187	0x3d4bf011	0.049789492
188	0xba61f800	-0.0008620024
189	0xbd896953	-0.06709542
190	0xbd7431f4	-0.05961795
191	0x3d8804e4	0.06641558
192	0x3d49e27e	0.049288265
193	0xbd87ab4d	-0.0662447
194	0x3d214768	0.03937474
195	0x3d525b84	0.051356807
196	0xbdcad841	-0.099045284
197	0x3d64a358	0.05581984
198	0xbc614264	-0.013748739
199	0xbd2174e5	-0.03941812
200	0xbc24e6a8	-0.010064758
201	0xbcead776	-0.028667193
202	0xbdf6289b	-0.12019464
203	0x3b9f5720	0.004862681
204	0x3b8f5f50	0.004375376
205	0xbe060cae	-0.13090774
206	0x3b939fe0	0.0045051426
207	0xbd8f2b43	-0.069906734
208	0xbe88bcef	-0.26706645
209	0xbd53a986	-0.051675342
210	0xbd2dac74	-0.042400792
211	0xbda3845c	-0.0798423
212	0x3d73e350	0.059542954
213	0x3cf96b94	0.030446805
214	0xbd085d39	-0.03329203
215	0xbd8b456a	-0.06800349
216	0x3d0f91c8	0.035051137
217	0xbda77b24	-0.08177784
218	0xbd383ccc	-0.044979855
219	0xbd86ce56	-0.06582324
220	0xbdcbd4ec	-0.09952721
221	0x3bc558a0	0.006022528
222	0x3c96de88	0.018416658
223	0xbcc87c09	-0.024473207
224	0x3b3fc180	0.0029259622
225	0x3d5e0e08	0.0542126
226	0xbdba6319	-0.09100933
227	0x3ad0c800	0.0015928745
228	0x3d88b8d2	0.06675877
229	0xbd87c83c	-0.066299886
230	0x3d676bec	0.056499407
231	0x3d1dbae2	0.038508303
232	0x3d3612fc	0.0444517
233	0x3c576db0	0.01314871
234	0x3d795ff0	0.06088251
235	0x3c63b67a	0.013898486
236	0xbccb953a	-0.02485143
237	0xbd4130ca	-0.04716567
238	0xbdbf9f34	-0.093565375
239	0xbb405f00	-0.00293535
240	0x3d0c7ffe	0.03430175
241	0xbdbf3d56	-0.09337871
242	0x3d22dee2	0.03976334
243	0xbbba4140	-0.005684048
244	0xbe040589	-0.12892736
245	0xbd82d10e	-0.0638753
246	0xbc48164c	-0.012212347
247	0xbcd3bf87	-0.025848163
248	0x3b94a8b0	0.0045367107
249	0x3d31d622	0.043417104
250	0xbca223bb	-0.019792428
251	0xbc5444ac	-0.012955826
252	0x3d1e625a	0.038668014
253	0xbd8c9e0f	-0.06866085
254	0xbd88b550	-0.066752076
255	0x3d26677a	0.040626027

convs_forward.4.bias f4 [32]
0	0x3dac7243	0.08420231
1	0x3d72355d	0.059132922
2	0x3cf54339	0.02993928
3	0xbd933eb3	-0.07189693
4	0xbe52132d	-0.20515127
5	0xbda8297c	-0.082110375
6	0xbe80492f	-0.25055835
7	0xbd67e83c	-0.05661796
8	0x39dae2eb	0.00041749267
9	0xbe8637c9	-0.26214436
10	0xbd4fcf38	-0.05073473
11	0xbc8636e1	-0.01638359
12	0xbe1a4b7a	-0.15067855
13	0x3da0c074	0.078492075
14	0xbd6efbe4	-0.05834569
15	0xbe15ef1c	-0.14641994
16	0xbe13d6f2	-0.14437464
17	0x3ddc1a4d	0.10747204
18	0xbcf84a64	-0.03030891
19	0x3e0333db	0.1281275
20	0xbd571c51	-0.05251724
21	0x3cdc381f	0.02688223
22	0xbe97db3b	-0.29659447
23	0x3cb4b038	0.022056684
24	0xbcf326a5	-0.029681513
25	0xbc577934	-0.013151456
26	0xbd26aa85	-0.040689964
27	0xbe0bd23b	-0.13654415
28	0xbe36f6eb	-0.17867629
29	0x3cf737ae	0.030177917
30	0x3b78b312	0.003794853
31	0xbe21427d	-0.1574802

convs_forward.5.weight f4 [32, 64, 3]
0	0xbd43d71a	-0.04781256
1	0xbd7dcb4f	-0.06196147
2	0xbc2e77b4	-0.010648657
3	0xbd2d128e	-0.042254023
4	0x3de9f379	0.11423392
5	0x3d8fdf82	0.070250526
6	0x3d0dcf1c	0.034621343
7	0xbea8761c	-0.3290261
8	0xbd4d2a79	-0.050089333
9	0xbd92b1f1	-0.07162846
10	0xbd66e0a4	-0.056366578
11	0xbbd19d50	-0.006396927
12	0xbd0b1fa3	-0.033965718
13	0xbd957a93	-0.0729877
14	0x3d01801a	0.031616308
15	0x3d931f36	0.071836874
16	0xbdbbd117	-0.0917074
17	0xbc372f2c	-0.01118068
18	0x3c1b8850	0.009492949
19	0xbd21b804	-0.03948213
20	0xbd06ab15	-0.032878
21	0xbce17880	-0.02752328
22	0xbd840493	-0.06446185
23	0xbd3a8d39	-0.045544837
24	0x3d81a9b2	0.06331195
25	0x3d020bab	0.03174941
26	0x3d29bf8c	0.04144244
27	0xbd08078a	-0.033210315
28	0xbe398447	-0.18116866
29	0xbd1ba216	-0.037996374
30	0x3ab82600	0.0014049411
31	0x3c3dc3fe	0.011582373
32	0x39fde400	0.00048425794
33	0xbd60562d	-0.054769684
34	0xbdd3dae3	-0.10344484
35	0xbd818f95	-0.06326214
36	0xbc1819c0	-0.009283483
37	0xbda31643	-0.079632305
38	0x3d2efc02	0.042720802
39	0x3c92fb0c	0.017941974
40	0xbe43aac2	-0.19108108
41	0xbd3294b6	-0.043598853
42	0x3d84155c	0.064493865
43	0xbe0142df	-0.12623166
44	0x3d8673f6	0.065650865
45	0xbc492e90	-0.012279168
46	0x3dff77b1	0.12474001
47	0xbd1ca1a0	-0.038240075
48	0xba801f80	-0.0009775013
49	0xbdb51be1	-0.08843208
50	0x3bb01970	0.005374126
51	0x3cadaa48	0.02119936
52	0xbda5b449	-0.08091027
53	0x3d317c20	0.043331265
54	0x3d8dbd48	0.06920868
55	0xbcf84b56	-0.03030936
56	0x3a880700	0.0010378063
57	0xbd2108d0	-0.039315045
58	0xbda428b2	-0.080155745
59	0x3c9ef388	0.019403234
60	0xbc58f6c0	-0.013242424
61	0x3ca13bec	0.019681893
62	0x3d292810	0.041297972
63	0x3cd3f69c	0.025874428
64	0xbd6e19ad	-0.058129955
65	0xbd4be806	-0.04978182
66	0xbd8c0456	-0.068367645
67	0x3e086672	0.1332033
68	0x3c0feaa0	0.008783966
69	0xbd820af1	-0.06349743
70	0xbcfb3825	-0.03066642
71	0xbd71636c	-0.058932707
72	0xbd447419	-0.04796228
73	0xbd05cb9f	-0.03266489
74	0xbd747102	-0.059678085
75	0xbba77960	-0.0051109046
76	0x3d583d2f	0.052792724
77	0x3c706f88	0.014675029
78	0xbd3f2bff	-0.046672817
79	0xbda71b21	-0.08159471
80	0x3d686f28	0.05674663
81	0x3d0518ac	0.032494232
82	0xbd168111	-0.03674418
83	0x3d903e88	0.07043177
84	0xbd2ff8f2	-0.042962022
85	0x3b140b5b	0.0022589776
86	0x3d4a7be2	0.04943455
87	0x3ba81900	0.0051299334
88	0x3d8f2cbc	0.06990954
89	0x3ba3d600	0.004999876
90	0xbbdef5d0	-0.0068042055
91	0x3c1b1570	0.00946556
92	0xbd6e463f	-0.05817246
93	0x3d86f3b2	0.0658945
94	0xbd76d181	-0.060258392
95	0x3d364e58	0.04450831
96	0x3d47bf3e	0.048766367
97	0xbcae3cd8	-0.021269247
98	0x3d06affe	0.032882683
99	0xbcb9139e	-0.022592362
100	0x3cfa678c	0.030566953
101	0x3d91fd5e	0.07128404
102	0x3d780814	0.06055458
103	0xbce3aaf9	-0.027791487
104	0x3d04170e	0.03224855
105	0xbd6cf5a4	-0.05785145
106	0xbe1e0059	-0.1542982
107	0xbd2b7fcc	-0.041869923
108	0xbb812be0	-0.003941998
109	0xbe5adc9b	-0.21373217
110	0x3d732a14	0.0593663
111	0x3ae55640	0.0017497018
112	0x3de60659	0.112316795
113	0xbd87fb8c	-0.06639776
114	0xbc3e714c	-0.011623692
115	0x3ddc943e	0.107704625
116	0xbd7de02a	-0.061981358
117	0xb9c04500	-0.00036672503
118	0xbd9f7195	-0.07785336
119	0x3d017460	0.031605124
120	0xbd023062	-0.031784423
121	0x3dfafffb	0.12255856
122	0xbbc4c550	-0.006004967
123	0x3d08ea56	0.033426605
124	0xbe301891	-0.17196871
125	0x3d53b6d0	0.051688015
126	0x3d31b99e	0.04338991
127	0xbde40b50	-0.1113497
128	0x3d337a06	0.043817542
129	0x3c273460	0.010205358
130	0xbdd0cbec	-0.10195145
131	0x3d22a8e8	0.039711863
132	0xbd312ec0	-0.043257475
133	0xbe736f7f	-0.23773001
134	0x3d749f18	0.059722036
135	0xbcd1dcce	-0.025617983
136	0x3db500af	0.08838021
137	0xbceca892	-0.028888974
138	0xbc665ff8	-0.014060967
139	0xbe0b6e73	-0.13616352
140	0xbd4baf3a	-0.049727656
141	0xbc3dd8cc	-0.011587333
142	0x3dc38a4d	0.09547863
143	0x3d4de7aa	0.05026976
144	0x3b3ceec0	0.002882883
145	0x3d42becf	0.04754525
146	0x3be02bc0	0.006841153
147	0x3cbf6e0c	0.023367904
148	0xbe2e4c81	-0.17021371
149	0x3cee96dc	0.02912467
150	0x3d5f8818	0.05457315
151	0x3ccbf3e0	0.024896562
152	0x3cee0468	0.029054835
153	0x3ba770d0	0.005109884
154	0xbdb0ef57	-0.086394005
155	0xbc807a94	-0.01568345
156	0x3d307472	0.0430798
157	0xbcca3e16	-0.024687808
158	0x3ca33df8	0.01992701
159	0x3bc08070	0.005874686
160	0xbdeae636	-0.114696905
161	0x3d8d97e4	0.069137365
162	0x3d884bba	0.06655069
163	0xbd5338b1	-0.051567737
164	0xbadfb580	-0.0017067641
165	0xbd845685	-0.06461815
166	0xbdc069ca	-0.09395178
167	0x3a09d900	0.0005258471
168	0x3b3ed860	0.0029120669
169	0x3c054d64	0.008136127
170	0x3d4df3f6	0.050281487
171	0xbd1bdb98	-0.038051218
172	0xbe0a5e6c	-0.13512582
173	0xbd86a1b1	-0.06573809
174	0x3bb2ac60	0.0054526776
175	0xbe9f5f15	-0.3112723
176	0x3d7afe98	0.061277956
177	0x3d1a52a2	0.03767646
178	0xbe67f4af	-0.22651933
179	0xbce8543a	-0.028360475
180	0xbd931efc	-0.07183644
181	0x3dcbe666	0.099560544
182	0x3d46bd5a	0.048520423
183	0x3d5a4558	0.053288788
184	0xbbc28f62	-0.0059375027
185	0xbd45b0fe	-0.048264496
186	0x3c137b00	0.009001493
187	0xbdc82a99	-0.0977375
188	0x3c1a6a28	0.009424724
189	0x3d2bd7c8	0.041953832
190	0xbd23eb6b	-0.040019434
191	0x3c1b63c0	0.0094842315
192	0x3c0f7960	0.008756965
193	0x3c80e88f	0.015735893
194	0x3d29ee3a	0.041486956
195	0x3c0dc628	0.008653201
196	0xbdc77bb8	-0.09740394
197	0x3bdb7ad0	0.00669799
198	0xbd5fb308	-0.054614097
199	0xbde996a6	-0.11405687
200	0x3d321e96	0.0434862
201	0x3c3ceb98	0.011530779
202	0xb9ef41ce	-0.0004563466
203	0x3d76db9c	0.06026803
204	0x3a1eb280	0.000605382
205	0xbd3e2927	-0.046425965
206	0x3c8d01fc	0.01721286
207	0x3d864d68	0.06557733
208	0xbdef96b4	-0.11698666
209	0x3b94a800	0.0045366287
210	0xbd78986b	-0.060692232
211	0xbd8f3d79	-0.06994147
212	0xbc7db680	-0.015485406
213	0x3d397e5e	0.04528653
214	0xbdab1ffa	-0.083557084
215	0xbd2b3a54	-0.041803673
216	0x3cc914bc	0.02454602
217	0xbe62907e	-0.22125432
218	0x3d89be2a	0.06725724
219	0xbd817cc4	-0.06322625
220	0x3c32f1c8	0.010921903
221	0x3c851914	0.01624731
222	0xbcdcfae8	-0.02697511
223	0xbd4f7c06	-0.050655387
224	0x3c8b2798	0.016986653
225	0xbb0e1360	-0.002167903
226	0x3ceafde4	0.028685518
227	0x3c945da4	0.018111058
228	0xbb8a6880	-0.004223883
229	0xbd70b059	-0.05876193
230	0x3be0af50	0.0068568364
231	0xbbfddff0	-0.0077476427
232	0x3c3b6fc5	0.011440222
233	0xbd0c817b	-0.03430317
234	0x3cdf1fa8	0.027236775
235	0xbc7aec5a	-0.01531514
236	0x3ad975c0	0.0016590878
237	0x3cde1a68	0.0271122
238	0x3d0acea3	0.03388847
239	0xbd4772ed	-0.048693586
240	0xbd03d55c	-0.032185897
241	0xbd330756	-0.043708168
242	0xbc475f48	-0.012168713
243	0x3d7d63f8	0.061862916
244	0xbd18d144	-0.037308946
245	0x3d477c48	0.04870251
246	0x3d86c7f0	0.06581104
247	0xbcbdacef	-0.02315375
248	0x3d378e9e	0.044813745
249	0xbd7b1cc0	-0.061306715
250	0xbb5bbdd8	-0.0033529904
251	0xbd0ce754	-0.0344003
252	0x3b375a60	0.0027977452
253	0xbcdae8ae	-0.026722278
254	0xbd43b47d	-0.04777955
255	0x3c951cc8	0.0182022

convs_forward.5.bias f4 [32]
0	0x3d5683ca	0.052371778
1	0xbcb20b85	-0.021734009
2	0xbe9b50d6	-0.3033511
3	0xbe888e4b	-0.2667106
4	0xbcfd3e38	-0.030913457
5	0x3d4fe749	0.05075768
6	0xbdc04108	-0.09387404
7	0x3cb7bd89	0.022429245
8	0xbe8e82ee	-0.27834266
9	0xbd264254	-0.0405906
10	0xbe82aef8	-0.25524116
11	0xbe43769e	-0.19088218
12	0xbe82e8f3	-0.2556835
13	0x3da2bea9	0.07946522
14	0xbe5a4077	-0.21313654
15	0xbd40da27	-0.047083046
16	0x3da50f71	0.08059586
17	0xbd8b8b5d	-0.06813691
18	0xbe887993	-0.26655254
19	0xbe89da91	-0.26924565
20	0xbe522b05	-0.20524223
21	0xbd95e8b1	-0.07319773
22	0xbeb1748e	-0.34659237
23	0x3b661341	0.003510669
24	0x3d7e7270	0.062120855
25	0xbe95f094	-0.2928511
26	0x3c29f832	0.010374116
27	0xbd76300f	-0.060104426
28	0xbe5d54fd	-0.21614452
29	0x3d9cd770	0.07658279
30	0x3dea2f22	0.11434771
31	0xb9ab6dee	-0.00032697566
